…
2018-02-23 11:10:28 INFO: Load CIFAR10 test data OK. data size is (10000, 32, 32, 3)
2018-02-23 11:10:28 INFO: Load CIFAR10 test data OK. data size is (10000, 32, 32, 3)
2018-02-23 11:10:28 INFO: Load CIFAR10 train data OK. data size is (50000, 32, 32, 3)
2018-02-23 11:10:28 INFO: Load CIFAR10 test data OK. data size is (10000, 32, 32, 3)
2018-02-23 11:10:28 INFO: Load CIFAR10 test data OK. data size is (10000, 32, 32, 3)
2018-02-23 11:10:28 INFO: model name:leaky_relu_cnn1
2018-02-23 11:10:28 INFO: model name:cnn1
2018-02-23 11:10:28 INFO: model architecture:
CNNLeakyReLU(
  (conv1): Conv2d (3, 16, kernel_size=(3, 3), stride=(1, 1), padding=(1, 1), bias=False)
  (bn1): BatchNorm2d(16, eps=1e-05, momentum=0.1, affine=True)
  (relu): LeakyReLU(0.01, inplace)
  (layer1): Sequential(
    (0): Conv2d (16, 16, kernel_size=(3, 3), stride=(1, 1), padding=(1, 1), bias=False)
    (1): BatchNorm2d(16, eps=1e-05, momentum=0.1, affine=True)
    (2): LeakyReLU(0.01, inplace)
  )
  (layer2): Sequential(
    (0): Conv2d (16, 32, kernel_size=(3, 3), stride=(2, 2), padding=(1, 1), bias=False)
    (1): BatchNorm2d(32, eps=1e-05, momentum=0.1, affine=True)
    (2): LeakyReLU(0.01, inplace)
  )
  (layer3): Sequential(
    (0): Conv2d (32, 64, kernel_size=(3, 3), stride=(2, 2), padding=(1, 1), bias=False)
    (1): BatchNorm2d(64, eps=1e-05, momentum=0.1, affine=True)
    (2): LeakyReLU(0.01, inplace)
  )
  (avgpool): AdaptiveAvgPool2d(output_size=1)
  (fc): Linear(in_features=64, out_features=10)
)
2018-02-23 11:10:28 INFO: model architecture:
CNNReLU(
  (conv1): Conv2d (3, 16, kernel_size=(3, 3), stride=(1, 1), padding=(1, 1), bias=False)
  (bn1): BatchNorm2d(16, eps=1e-05, momentum=0.1, affine=True)
  (relu): ReLU(inplace)
  (layer1): Sequential(
    (0): Conv2d (16, 16, kernel_size=(3, 3), stride=(1, 1), padding=(1, 1), bias=False)
    (1): BatchNorm2d(16, eps=1e-05, momentum=0.1, affine=True)
    (2): ReLU(inplace)
  )
  (layer2): Sequential(
    (0): Conv2d (16, 32, kernel_size=(3, 3), stride=(2, 2), padding=(1, 1), bias=False)
    (1): BatchNorm2d(32, eps=1e-05, momentum=0.1, affine=True)
    (2): ReLU(inplace)
  )
  (layer3): Sequential(
    (0): Conv2d (32, 64, kernel_size=(3, 3), stride=(2, 2), padding=(1, 1), bias=False)
    (1): BatchNorm2d(64, eps=1e-05, momentum=0.1, affine=True)
    (2): ReLU(inplace)
  )
  (avgpool): AdaptiveAvgPool2d(output_size=1)
  (fc): Linear(in_features=64, out_features=10)
)
2018-02-23 11:10:28 INFO: model name:cnn3
2018-02-23 11:10:28 INFO: model architecture:
CNNReLU(
  (conv1): Conv2d (3, 16, kernel_size=(3, 3), stride=(1, 1), padding=(1, 1), bias=False)
  (bn1): BatchNorm2d(16, eps=1e-05, momentum=0.1, affine=True)
  (relu): ReLU(inplace)
  (layer1): Sequential(
    (0): Conv2d (16, 16, kernel_size=(3, 3), stride=(1, 1), padding=(1, 1), bias=False)
    (1): BatchNorm2d(16, eps=1e-05, momentum=0.1, affine=True)
    (2): ReLU(inplace)
    (3): Conv2d (16, 16, kernel_size=(3, 3), stride=(1, 1), padding=(1, 1), bias=False)
    (4): BatchNorm2d(16, eps=1e-05, momentum=0.1, affine=True)
    (5): ReLU(inplace)
    (6): Conv2d (16, 16, kernel_size=(3, 3), stride=(1, 1), padding=(1, 1), bias=False)
    (7): BatchNorm2d(16, eps=1e-05, momentum=0.1, affine=True)
    (8): ReLU(inplace)
  )
  (layer2): Sequential(
    (0): Conv2d (16, 32, kernel_size=(3, 3), stride=(2, 2), padding=(1, 1), bias=False)
    (1): BatchNorm2d(32, eps=1e-05, momentum=0.1, affine=True)
    (2): ReLU(inplace)
    (3): Conv2d (32, 32, kernel_size=(3, 3), stride=(1, 1), padding=(1, 1), bias=False)
    (4): BatchNorm2d(32, eps=1e-05, momentum=0.1, affine=True)
    (5): ReLU(inplace)
    (6): Conv2d (32, 32, kernel_size=(3, 3), stride=(1, 1), padding=(1, 1), bias=False)
    (7): BatchNorm2d(32, eps=1e-05, momentum=0.1, affine=True)
    (8): ReLU(inplace)
  )
  (layer3): Sequential(
    (0): Conv2d (32, 64, kernel_size=(3, 3), stride=(2, 2), padding=(1, 1), bias=False)
    (1): BatchNorm2d(64, eps=1e-05, momentum=0.1, affine=True)
    (2): ReLU(inplace)
    (3): Conv2d (64, 64, kernel_size=(3, 3), stride=(1, 1), padding=(1, 1), bias=False)
    (4): BatchNorm2d(64, eps=1e-05, momentum=0.1, affine=True)
    (5): ReLU(inplace)
    (6): Conv2d (64, 64, kernel_size=(3, 3), stride=(1, 1), padding=(1, 1), bias=False)
    (7): BatchNorm2d(64, eps=1e-05, momentum=0.1, affine=True)
    (8): ReLU(inplace)
  )
  (avgpool): AdaptiveAvgPool2d(output_size=1)
  (fc): Linear(in_features=64, out_features=10)
)
2018-02-23 11:10:28 INFO: model name:leaky_relu_cnn3
2018-02-23 11:10:28 INFO: model architecture:
CNNLeakyReLU(
  (conv1): Conv2d (3, 16, kernel_size=(3, 3), stride=(1, 1), padding=(1, 1), bias=False)
  (bn1): BatchNorm2d(16, eps=1e-05, momentum=0.1, affine=True)
  (relu): LeakyReLU(0.01, inplace)
  (layer1): Sequential(
    (0): Conv2d (16, 16, kernel_size=(3, 3), stride=(1, 1), padding=(1, 1), bias=False)
    (1): BatchNorm2d(16, eps=1e-05, momentum=0.1, affine=True)
    (2): LeakyReLU(0.01, inplace)
    (3): Conv2d (16, 16, kernel_size=(3, 3), stride=(1, 1), padding=(1, 1), bias=False)
    (4): BatchNorm2d(16, eps=1e-05, momentum=0.1, affine=True)
    (5): LeakyReLU(0.01, inplace)
    (6): Conv2d (16, 16, kernel_size=(3, 3), stride=(1, 1), padding=(1, 1), bias=False)
    (7): BatchNorm2d(16, eps=1e-05, momentum=0.1, affine=True)
    (8): LeakyReLU(0.01, inplace)
  )
  (layer2): Sequential(
    (0): Conv2d (16, 32, kernel_size=(3, 3), stride=(2, 2), padding=(1, 1), bias=False)
    (1): BatchNorm2d(32, eps=1e-05, momentum=0.1, affine=True)
    (2): LeakyReLU(0.01, inplace)
    (3): Conv2d (32, 32, kernel_size=(3, 3), stride=(1, 1), padding=(1, 1), bias=False)
    (4): BatchNorm2d(32, eps=1e-05, momentum=0.1, affine=True)
    (5): LeakyReLU(0.01, inplace)
    (6): Conv2d (32, 32, kernel_size=(3, 3), stride=(1, 1), padding=(1, 1), bias=False)
    (7): BatchNorm2d(32, eps=1e-05, momentum=0.1, affine=True)
    (8): LeakyReLU(0.01, inplace)
  )
  (layer3): Sequential(
    (0): Conv2d (32, 64, kernel_size=(3, 3), stride=(2, 2), padding=(1, 1), bias=False)
    (1): BatchNorm2d(64, eps=1e-05, momentum=0.1, affine=True)
    (2): LeakyReLU(0.01, inplace)
    (3): Conv2d (64, 64, kernel_size=(3, 3), stride=(1, 1), padding=(1, 1), bias=False)
    (4): BatchNorm2d(64, eps=1e-05, momentum=0.1, affine=True)
    (5): LeakyReLU(0.01, inplace)
    (6): Conv2d (64, 64, kernel_size=(3, 3), stride=(1, 1), padding=(1, 1), bias=False)
    (7): BatchNorm2d(64, eps=1e-05, momentum=0.1, affine=True)
    (8): LeakyReLU(0.01, inplace)
  )
  (avgpool): AdaptiveAvgPool2d(output_size=1)
  (fc): Linear(in_features=64, out_features=10)
)
2018-02-23 11:10:28 INFO: model name:cnn5
2018-02-23 11:10:28 INFO: model architecture:
CNNReLU(
  (conv1): Conv2d (3, 16, kernel_size=(3, 3), stride=(1, 1), padding=(1, 1), bias=False)
  (bn1): BatchNorm2d(16, eps=1e-05, momentum=0.1, affine=True)
  (relu): ReLU(inplace)
  (layer1): Sequential(
    (0): Conv2d (16, 16, kernel_size=(3, 3), stride=(1, 1), padding=(1, 1), bias=False)
    (1): BatchNorm2d(16, eps=1e-05, momentum=0.1, affine=True)
    (2): ReLU(inplace)
    (3): Conv2d (16, 16, kernel_size=(3, 3), stride=(1, 1), padding=(1, 1), bias=False)
    (4): BatchNorm2d(16, eps=1e-05, momentum=0.1, affine=True)
    (5): ReLU(inplace)
    (6): Conv2d (16, 16, kernel_size=(3, 3), stride=(1, 1), padding=(1, 1), bias=False)
    (7): BatchNorm2d(16, eps=1e-05, momentum=0.1, affine=True)
    (8): ReLU(inplace)
    (9): Conv2d (16, 16, kernel_size=(3, 3), stride=(1, 1), padding=(1, 1), bias=False)
    (10): BatchNorm2d(16, eps=1e-05, momentum=0.1, affine=True)
    (11): ReLU(inplace)
    (12): Conv2d (16, 16, kernel_size=(3, 3), stride=(1, 1), padding=(1, 1), bias=False)
    (13): BatchNorm2d(16, eps=1e-05, momentum=0.1, affine=True)
    (14): ReLU(inplace)
  )
  (layer2): Sequential(
    (0): Conv2d (16, 32, kernel_size=(3, 3), stride=(2, 2), padding=(1, 1), bias=False)
    (1): BatchNorm2d(32, eps=1e-05, momentum=0.1, affine=True)
    (2): ReLU(inplace)
    (3): Conv2d (32, 32, kernel_size=(3, 3), stride=(1, 1), padding=(1, 1), bias=False)
    (4): BatchNorm2d(32, eps=1e-05, momentum=0.1, affine=True)
    (5): ReLU(inplace)
    (6): Conv2d (32, 32, kernel_size=(3, 3), stride=(1, 1), padding=(1, 1), bias=False)
    (7): BatchNorm2d(32, eps=1e-05, momentum=0.1, affine=True)
    (8): ReLU(inplace)
    (9): Conv2d (32, 32, kernel_size=(3, 3), stride=(1, 1), padding=(1, 1), bias=False)
    (10): BatchNorm2d(32, eps=1e-05, momentum=0.1, affine=True)
    (11): ReLU(inplace)
    (12): Conv2d (32, 32, kernel_size=(3, 3), stride=(1, 1), padding=(1, 1), bias=False)
    (13): BatchNorm2d(32, eps=1e-05, momentum=0.1, affine=True)
    (14): ReLU(inplace)
  )
  (layer3): Sequential(
    (0): Conv2d (32, 64, kernel_size=(3, 3), stride=(2, 2), padding=(1, 1), bias=False)
    (1): BatchNorm2d(64, eps=1e-05, momentum=0.1, affine=True)
    (2): ReLU(inplace)
    (3): Conv2d (64, 64, kernel_size=(3, 3), stride=(1, 1), padding=(1, 1), bias=False)
    (4): BatchNorm2d(64, eps=1e-05, momentum=0.1, affine=True)
    (5): ReLU(inplace)
    (6): Conv2d (64, 64, kernel_size=(3, 3), stride=(1, 1), padding=(1, 1), bias=False)
    (7): BatchNorm2d(64, eps=1e-05, momentum=0.1, affine=True)
    (8): ReLU(inplace)
    (9): Conv2d (64, 64, kernel_size=(3, 3), stride=(1, 1), padding=(1, 1), bias=False)
    (10): BatchNorm2d(64, eps=1e-05, momentum=0.1, affine=True)
    (11): ReLU(inplace)
    (12): Conv2d (64, 64, kernel_size=(3, 3), stride=(1, 1), padding=(1, 1), bias=False)
    (13): BatchNorm2d(64, eps=1e-05, momentum=0.1, affine=True)
    (14): ReLU(inplace)
  )
  (avgpool): AdaptiveAvgPool2d(output_size=1)
  (fc): Linear(in_features=64, out_features=10)
)
2018-02-23 11:10:28 INFO: model name:leaky_relu_cnn5
2018-02-23 11:10:28 INFO: model architecture:
CNNLeakyReLU(
  (conv1): Conv2d (3, 16, kernel_size=(3, 3), stride=(1, 1), padding=(1, 1), bias=False)
  (bn1): BatchNorm2d(16, eps=1e-05, momentum=0.1, affine=True)
  (relu): LeakyReLU(0.01, inplace)
  (layer1): Sequential(
    (0): Conv2d (16, 16, kernel_size=(3, 3), stride=(1, 1), padding=(1, 1), bias=False)
    (1): BatchNorm2d(16, eps=1e-05, momentum=0.1, affine=True)
    (2): LeakyReLU(0.01, inplace)
    (3): Conv2d (16, 16, kernel_size=(3, 3), stride=(1, 1), padding=(1, 1), bias=False)
    (4): BatchNorm2d(16, eps=1e-05, momentum=0.1, affine=True)
    (5): LeakyReLU(0.01, inplace)
    (6): Conv2d (16, 16, kernel_size=(3, 3), stride=(1, 1), padding=(1, 1), bias=False)
    (7): BatchNorm2d(16, eps=1e-05, momentum=0.1, affine=True)
    (8): LeakyReLU(0.01, inplace)
    (9): Conv2d (16, 16, kernel_size=(3, 3), stride=(1, 1), padding=(1, 1), bias=False)
    (10): BatchNorm2d(16, eps=1e-05, momentum=0.1, affine=True)
    (11): LeakyReLU(0.01, inplace)
    (12): Conv2d (16, 16, kernel_size=(3, 3), stride=(1, 1), padding=(1, 1), bias=False)
    (13): BatchNorm2d(16, eps=1e-05, momentum=0.1, affine=True)
    (14): LeakyReLU(0.01, inplace)
  )
  (layer2): Sequential(
    (0): Conv2d (16, 32, kernel_size=(3, 3), stride=(2, 2), padding=(1, 1), bias=False)
    (1): BatchNorm2d(32, eps=1e-05, momentum=0.1, affine=True)
    (2): LeakyReLU(0.01, inplace)
    (3): Conv2d (32, 32, kernel_size=(3, 3), stride=(1, 1), padding=(1, 1), bias=False)
    (4): BatchNorm2d(32, eps=1e-05, momentum=0.1, affine=True)
    (5): LeakyReLU(0.01, inplace)
    (6): Conv2d (32, 32, kernel_size=(3, 3), stride=(1, 1), padding=(1, 1), bias=False)
    (7): BatchNorm2d(32, eps=1e-05, momentum=0.1, affine=True)
    (8): LeakyReLU(0.01, inplace)
    (9): Conv2d (32, 32, kernel_size=(3, 3), stride=(1, 1), padding=(1, 1), bias=False)
    (10): BatchNorm2d(32, eps=1e-05, momentum=0.1, affine=True)
    (11): LeakyReLU(0.01, inplace)
    (12): Conv2d (32, 32, kernel_size=(3, 3), stride=(1, 1), padding=(1, 1), bias=False)
    (13): BatchNorm2d(32, eps=1e-05, momentum=0.1, affine=True)
    (14): LeakyReLU(0.01, inplace)
  )
  (layer3): Sequential(
    (0): Conv2d (32, 64, kernel_size=(3, 3), stride=(2, 2), padding=(1, 1), bias=False)
    (1): BatchNorm2d(64, eps=1e-05, momentum=0.1, affine=True)
    (2): LeakyReLU(0.01, inplace)
    (3): Conv2d (64, 64, kernel_size=(3, 3), stride=(1, 1), padding=(1, 1), bias=False)
    (4): BatchNorm2d(64, eps=1e-05, momentum=0.1, affine=True)
    (5): LeakyReLU(0.01, inplace)
    (6): Conv2d (64, 64, kernel_size=(3, 3), stride=(1, 1), padding=(1, 1), bias=False)
    (7): BatchNorm2d(64, eps=1e-05, momentum=0.1, affine=True)
    (8): LeakyReLU(0.01, inplace)
    (9): Conv2d (64, 64, kernel_size=(3, 3), stride=(1, 1), padding=(1, 1), bias=False)
    (10): BatchNorm2d(64, eps=1e-05, momentum=0.1, affine=True)
    (11): LeakyReLU(0.01, inplace)
    (12): Conv2d (64, 64, kernel_size=(3, 3), stride=(1, 1), padding=(1, 1), bias=False)
    (13): BatchNorm2d(64, eps=1e-05, momentum=0.1, affine=True)
    (14): LeakyReLU(0.01, inplace)
  )
  (avgpool): AdaptiveAvgPool2d(output_size=1)
  (fc): Linear(in_features=64, out_features=10)
)
2018-02-23 11:10:28 INFO: model name:cnn7
2018-02-23 11:10:28 INFO: model architecture:
CNNReLU(
  (conv1): Conv2d (3, 16, kernel_size=(3, 3), stride=(1, 1), padding=(1, 1), bias=False)
  (bn1): BatchNorm2d(16, eps=1e-05, momentum=0.1, affine=True)
  (relu): ReLU(inplace)
  (layer1): Sequential(
    (0): Conv2d (16, 16, kernel_size=(3, 3), stride=(1, 1), padding=(1, 1), bias=False)
    (1): BatchNorm2d(16, eps=1e-05, momentum=0.1, affine=True)
    (2): ReLU(inplace)
    (3): Conv2d (16, 16, kernel_size=(3, 3), stride=(1, 1), padding=(1, 1), bias=False)
    (4): BatchNorm2d(16, eps=1e-05, momentum=0.1, affine=True)
    (5): ReLU(inplace)
    (6): Conv2d (16, 16, kernel_size=(3, 3), stride=(1, 1), padding=(1, 1), bias=False)
    (7): BatchNorm2d(16, eps=1e-05, momentum=0.1, affine=True)
    (8): ReLU(inplace)
    (9): Conv2d (16, 16, kernel_size=(3, 3), stride=(1, 1), padding=(1, 1), bias=False)
    (10): BatchNorm2d(16, eps=1e-05, momentum=0.1, affine=True)
    (11): ReLU(inplace)
    (12): Conv2d (16, 16, kernel_size=(3, 3), stride=(1, 1), padding=(1, 1), bias=False)
    (13): BatchNorm2d(16, eps=1e-05, momentum=0.1, affine=True)
    (14): ReLU(inplace)
    (15): Conv2d (16, 16, kernel_size=(3, 3), stride=(1, 1), padding=(1, 1), bias=False)
    (16): BatchNorm2d(16, eps=1e-05, momentum=0.1, affine=True)
    (17): ReLU(inplace)
    (18): Conv2d (16, 16, kernel_size=(3, 3), stride=(1, 1), padding=(1, 1), bias=False)
    (19): BatchNorm2d(16, eps=1e-05, momentum=0.1, affine=True)
    (20): ReLU(inplace)
  )
  (layer2): Sequential(
    (0): Conv2d (16, 32, kernel_size=(3, 3), stride=(2, 2), padding=(1, 1), bias=False)
    (1): BatchNorm2d(32, eps=1e-05, momentum=0.1, affine=True)
    (2): ReLU(inplace)
    (3): Conv2d (32, 32, kernel_size=(3, 3), stride=(1, 1), padding=(1, 1), bias=False)
    (4): BatchNorm2d(32, eps=1e-05, momentum=0.1, affine=True)
    (5): ReLU(inplace)
    (6): Conv2d (32, 32, kernel_size=(3, 3), stride=(1, 1), padding=(1, 1), bias=False)
    (7): BatchNorm2d(32, eps=1e-05, momentum=0.1, affine=True)
    (8): ReLU(inplace)
    (9): Conv2d (32, 32, kernel_size=(3, 3), stride=(1, 1), padding=(1, 1), bias=False)
    (10): BatchNorm2d(32, eps=1e-05, momentum=0.1, affine=True)
    (11): ReLU(inplace)
    (12): Conv2d (32, 32, kernel_size=(3, 3), stride=(1, 1), padding=(1, 1), bias=False)
    (13): BatchNorm2d(32, eps=1e-05, momentum=0.1, affine=True)
    (14): ReLU(inplace)
    (15): Conv2d (32, 32, kernel_size=(3, 3), stride=(1, 1), padding=(1, 1), bias=False)
    (16): BatchNorm2d(32, eps=1e-05, momentum=0.1, affine=True)
    (17): ReLU(inplace)
    (18): Conv2d (32, 32, kernel_size=(3, 3), stride=(1, 1), padding=(1, 1), bias=False)
    (19): BatchNorm2d(32, eps=1e-05, momentum=0.1, affine=True)
    (20): ReLU(inplace)
  )
  (layer3): Sequential(
    (0): Conv2d (32, 64, kernel_size=(3, 3), stride=(2, 2), padding=(1, 1), bias=False)
    (1): BatchNorm2d(64, eps=1e-05, momentum=0.1, affine=True)
    (2): ReLU(inplace)
    (3): Conv2d (64, 64, kernel_size=(3, 3), stride=(1, 1), padding=(1, 1), bias=False)
    (4): BatchNorm2d(64, eps=1e-05, momentum=0.1, affine=True)
    (5): ReLU(inplace)
    (6): Conv2d (64, 64, kernel_size=(3, 3), stride=(1, 1), padding=(1, 1), bias=False)
    (7): BatchNorm2d(64, eps=1e-05, momentum=0.1, affine=True)
    (8): ReLU(inplace)
    (9): Conv2d (64, 64, kernel_size=(3, 3), stride=(1, 1), padding=(1, 1), bias=False)
    (10): BatchNorm2d(64, eps=1e-05, momentum=0.1, affine=True)
    (11): ReLU(inplace)
    (12): Conv2d (64, 64, kernel_size=(3, 3), stride=(1, 1), padding=(1, 1), bias=False)
    (13): BatchNorm2d(64, eps=1e-05, momentum=0.1, affine=True)
    (14): ReLU(inplace)
    (15): Conv2d (64, 64, kernel_size=(3, 3), stride=(1, 1), padding=(1, 1), bias=False)
    (16): BatchNorm2d(64, eps=1e-05, momentum=0.1, affine=True)
    (17): ReLU(inplace)
    (18): Conv2d (64, 64, kernel_size=(3, 3), stride=(1, 1), padding=(1, 1), bias=False)
    (19): BatchNorm2d(64, eps=1e-05, momentum=0.1, affine=True)
    (20): ReLU(inplace)
  )
  (avgpool): AdaptiveAvgPool2d(output_size=1)
  (fc): Linear(in_features=64, out_features=10)
)
2018-02-23 11:10:28 INFO: model name:leaky_relu_cnn7
2018-02-23 11:10:28 INFO: model architecture:
CNNLeakyReLU(
  (conv1): Conv2d (3, 16, kernel_size=(3, 3), stride=(1, 1), padding=(1, 1), bias=False)
  (bn1): BatchNorm2d(16, eps=1e-05, momentum=0.1, affine=True)
  (relu): LeakyReLU(0.01, inplace)
  (layer1): Sequential(
    (0): Conv2d (16, 16, kernel_size=(3, 3), stride=(1, 1), padding=(1, 1), bias=False)
    (1): BatchNorm2d(16, eps=1e-05, momentum=0.1, affine=True)
    (2): LeakyReLU(0.01, inplace)
    (3): Conv2d (16, 16, kernel_size=(3, 3), stride=(1, 1), padding=(1, 1), bias=False)
    (4): BatchNorm2d(16, eps=1e-05, momentum=0.1, affine=True)
    (5): LeakyReLU(0.01, inplace)
    (6): Conv2d (16, 16, kernel_size=(3, 3), stride=(1, 1), padding=(1, 1), bias=False)
    (7): BatchNorm2d(16, eps=1e-05, momentum=0.1, affine=True)
    (8): LeakyReLU(0.01, inplace)
    (9): Conv2d (16, 16, kernel_size=(3, 3), stride=(1, 1), padding=(1, 1), bias=False)
    (10): BatchNorm2d(16, eps=1e-05, momentum=0.1, affine=True)
    (11): LeakyReLU(0.01, inplace)
    (12): Conv2d (16, 16, kernel_size=(3, 3), stride=(1, 1), padding=(1, 1), bias=False)
    (13): BatchNorm2d(16, eps=1e-05, momentum=0.1, affine=True)
    (14): LeakyReLU(0.01, inplace)
    (15): Conv2d (16, 16, kernel_size=(3, 3), stride=(1, 1), padding=(1, 1), bias=False)
    (16): BatchNorm2d(16, eps=1e-05, momentum=0.1, affine=True)
    (17): LeakyReLU(0.01, inplace)
    (18): Conv2d (16, 16, kernel_size=(3, 3), stride=(1, 1), padding=(1, 1), bias=False)
    (19): BatchNorm2d(16, eps=1e-05, momentum=0.1, affine=True)
    (20): LeakyReLU(0.01, inplace)
  )
  (layer2): Sequential(
    (0): Conv2d (16, 32, kernel_size=(3, 3), stride=(2, 2), padding=(1, 1), bias=False)
    (1): BatchNorm2d(32, eps=1e-05, momentum=0.1, affine=True)
    (2): LeakyReLU(0.01, inplace)
    (3): Conv2d (32, 32, kernel_size=(3, 3), stride=(1, 1), padding=(1, 1), bias=False)
    (4): BatchNorm2d(32, eps=1e-05, momentum=0.1, affine=True)
    (5): LeakyReLU(0.01, inplace)
    (6): Conv2d (32, 32, kernel_size=(3, 3), stride=(1, 1), padding=(1, 1), bias=False)
    (7): BatchNorm2d(32, eps=1e-05, momentum=0.1, affine=True)
    (8): LeakyReLU(0.01, inplace)
    (9): Conv2d (32, 32, kernel_size=(3, 3), stride=(1, 1), padding=(1, 1), bias=False)
    (10): BatchNorm2d(32, eps=1e-05, momentum=0.1, affine=True)
    (11): LeakyReLU(0.01, inplace)
    (12): Conv2d (32, 32, kernel_size=(3, 3), stride=(1, 1), padding=(1, 1), bias=False)
    (13): BatchNorm2d(32, eps=1e-05, momentum=0.1, affine=True)
    (14): LeakyReLU(0.01, inplace)
    (15): Conv2d (32, 32, kernel_size=(3, 3), stride=(1, 1), padding=(1, 1), bias=False)
    (16): BatchNorm2d(32, eps=1e-05, momentum=0.1, affine=True)
    (17): LeakyReLU(0.01, inplace)
    (18): Conv2d (32, 32, kernel_size=(3, 3), stride=(1, 1), padding=(1, 1), bias=False)
    (19): BatchNorm2d(32, eps=1e-05, momentum=0.1, affine=True)
    (20): LeakyReLU(0.01, inplace)
  )
  (layer3): Sequential(
    (0): Conv2d (32, 64, kernel_size=(3, 3), stride=(2, 2), padding=(1, 1), bias=False)
    (1): BatchNorm2d(64, eps=1e-05, momentum=0.1, affine=True)
    (2): LeakyReLU(0.01, inplace)
    (3): Conv2d (64, 64, kernel_size=(3, 3), stride=(1, 1), padding=(1, 1), bias=False)
    (4): BatchNorm2d(64, eps=1e-05, momentum=0.1, affine=True)
    (5): LeakyReLU(0.01, inplace)
    (6): Conv2d (64, 64, kernel_size=(3, 3), stride=(1, 1), padding=(1, 1), bias=False)
    (7): BatchNorm2d(64, eps=1e-05, momentum=0.1, affine=True)
    (8): LeakyReLU(0.01, inplace)
    (9): Conv2d (64, 64, kernel_size=(3, 3), stride=(1, 1), padding=(1, 1), bias=False)
    (10): BatchNorm2d(64, eps=1e-05, momentum=0.1, affine=True)
    (11): LeakyReLU(0.01, inplace)
    (12): Conv2d (64, 64, kernel_size=(3, 3), stride=(1, 1), padding=(1, 1), bias=False)
    (13): BatchNorm2d(64, eps=1e-05, momentum=0.1, affine=True)
    (14): LeakyReLU(0.01, inplace)
    (15): Conv2d (64, 64, kernel_size=(3, 3), stride=(1, 1), padding=(1, 1), bias=False)
    (16): BatchNorm2d(64, eps=1e-05, momentum=0.1, affine=True)
    (17): LeakyReLU(0.01, inplace)
    (18): Conv2d (64, 64, kernel_size=(3, 3), stride=(1, 1), padding=(1, 1), bias=False)
    (19): BatchNorm2d(64, eps=1e-05, momentum=0.1, affine=True)
    (20): LeakyReLU(0.01, inplace)
  )
  (avgpool): AdaptiveAvgPool2d(output_size=1)
  (fc): Linear(in_features=64, out_features=10)
)
2018-02-23 11:14:42 INFO: Load model training parameters from cifar10-leaky_relu_cnn7.pkl
2018-02-23 11:14:50 INFO: test | loss: 0.3878 | accuracy: 0.8950 | lr: 0.100000 | using time: 6.336
2018-02-23 11:15:46 INFO: Load model training parameters from cifar10-cnn7.pkl
2018-02-23 11:15:48 INFO: train | epoch 0 | loss: 0.7481 | accuracy: 0.7412 | lr: 0.100000 | using time: 57.332
…
2018-02-23 12:34:55 INFO: train | epoch 80 | loss: 0.6434 | accuracy: 0.7755 | lr: 0.000001 | using time: 53.788
2018-02-23 12:34:55 INFO: last average accuracy is 0.7762
2018-02-23 12:34:58 INFO: test | loss: 0.7063 | accuracy: 0.7536 | lr: 0.000001 | using time: 2.592
2018-02-23 12:35:04 INFO: Load CIFAR10 train data OK. data size is (50000, 32, 32, 3)
2018-02-23 12:35:04 INFO: Load CIFAR10 test data OK. data size is (10000, 32, 32, 3)
2018-02-23 12:35:04 INFO: model name:prelu_cnn1
2018-02-23 12:35:04 INFO: model architecture:
CNNPReLU(
  (conv1): Conv2d (3, 16, kernel_size=(3, 3), stride=(1, 1), padding=(1, 1), bias=False)
  (bn1): BatchNorm2d(16, eps=1e-05, momentum=0.1, affine=True)
  (relu): PReLU(num_parameters=1)
  (layer1): Sequential(
    (0): Conv2d (16, 16, kernel_size=(3, 3), stride=(1, 1), padding=(1, 1), bias=False)
    (1): BatchNorm2d(16, eps=1e-05, momentum=0.1, affine=True)
    (2): PReLU(num_parameters=1)
  )
  (layer2): Sequential(
    (0): Conv2d (16, 32, kernel_size=(3, 3), stride=(2, 2), padding=(1, 1), bias=False)
    (1): BatchNorm2d(32, eps=1e-05, momentum=0.1, affine=True)
    (2): PReLU(num_parameters=1)
  )
  (layer3): Sequential(
    (0): Conv2d (32, 64, kernel_size=(3, 3), stride=(2, 2), padding=(1, 1), bias=False)
    (1): BatchNorm2d(64, eps=1e-05, momentum=0.1, affine=True)
    (2): PReLU(num_parameters=1)
  )
  (avgpool): AdaptiveAvgPool2d(output_size=1)
  (fc): Linear(in_features=64, out_features=10)
)
2018-02-23 12:35:06 INFO: train | epoch 74 | loss: 0.0775 | accuracy: 0.9735 | lr: 0.010000 | using time: 58.447
2018-02-23 12:35:06 INFO: last average accuracy is 0.9716
2018-02-23 12:35:09 INFO: test | loss: 0.4963 | accuracy: 0.8720 | lr: 0.010000 | using time: 2.690
2018-02-23 12:35:22 INFO: train | epoch 79 | loss: 0.6456 | accuracy: 0.7740 | lr: 0.000001 | using time: 56.136
…
2018-02-23 12:35:24 INFO: test | loss: 0.7102 | accuracy: 0.7534 | lr: 0.000001 | using time: 2.643
2018-02-23 12:35:27 INFO: train | epoch 79 | loss: 0.1692 | accuracy: 0.9428 | lr: 0.010000 | using time: 55.432
2018-02-23 12:35:27 INFO: last average accuracy is 0.9420
2018-02-23 12:35:29 INFO: Load CIFAR10 train data OK. data size is (50000, 32, 32, 3)
2018-02-23 12:35:29 INFO: Load CIFAR10 test data OK. data size is (10000, 32, 32, 3)
2018-02-23 12:35:29 INFO: model name:prelu_cnn3
2018-02-23 12:35:29 INFO: model architecture:
CNNPReLU(
  (conv1): Conv2d (3, 16, kernel_size=(3, 3), stride=(1, 1), padding=(1, 1), bias=False)
  (bn1): BatchNorm2d(16, eps=1e-05, momentum=0.1, affine=True)
  (relu): PReLU(num_parameters=1)
  (layer1): Sequential(
    (0): Conv2d (16, 16, kernel_size=(3, 3), stride=(1, 1), padding=(1, 1), bias=False)
    (1): BatchNorm2d(16, eps=1e-05, momentum=0.1, affine=True)
    (2): PReLU(num_parameters=1)
    (3): Conv2d (16, 16, kernel_size=(3, 3), stride=(1, 1), padding=(1, 1), bias=False)
    (4): BatchNorm2d(16, eps=1e-05, momentum=0.1, affine=True)
    (5): PReLU(num_parameters=1)
    (6): Conv2d (16, 16, kernel_size=(3, 3), stride=(1, 1), padding=(1, 1), bias=False)
    (7): BatchNorm2d(16, eps=1e-05, momentum=0.1, affine=True)
    (8): PReLU(num_parameters=1)
  )
  (layer2): Sequential(
    (0): Conv2d (16, 32, kernel_size=(3, 3), stride=(2, 2), padding=(1, 1), bias=False)
    (1): BatchNorm2d(32, eps=1e-05, momentum=0.1, affine=True)
    (2): PReLU(num_parameters=1)
    (3): Conv2d (32, 32, kernel_size=(3, 3), stride=(1, 1), padding=(1, 1), bias=False)
    (4): BatchNorm2d(32, eps=1e-05, momentum=0.1, affine=True)
    (5): PReLU(num_parameters=1)
    (6): Conv2d (32, 32, kernel_size=(3, 3), stride=(1, 1), padding=(1, 1), bias=False)
    (7): BatchNorm2d(32, eps=1e-05, momentum=0.1, affine=True)
    (8): PReLU(num_parameters=1)
  )
  (layer3): Sequential(
    (0): Conv2d (32, 64, kernel_size=(3, 3), stride=(2, 2), padding=(1, 1), bias=False)
    (1): BatchNorm2d(64, eps=1e-05, momentum=0.1, affine=True)
    (2): PReLU(num_parameters=1)
    (3): Conv2d (64, 64, kernel_size=(3, 3), stride=(1, 1), padding=(1, 1), bias=False)
    (4): BatchNorm2d(64, eps=1e-05, momentum=0.1, affine=True)
    (5): PReLU(num_parameters=1)
    (6): Conv2d (64, 64, kernel_size=(3, 3), stride=(1, 1), padding=(1, 1), bias=False)
    (7): BatchNorm2d(64, eps=1e-05, momentum=0.1, affine=True)
    (8): PReLU(num_parameters=1)
  )
  (avgpool): AdaptiveAvgPool2d(output_size=1)
  (fc): Linear(in_features=64, out_features=10)
)
2018-02-23 12:35:30 INFO: test | loss: 0.4329 | accuracy: 0.8639 | lr: 0.010000 | using time: 2.751
2018-02-23 12:35:34 INFO: train | epoch 75 | loss: 0.0938 | accuracy: 0.9667 | lr: 0.010000 | using time: 57.501
2018-02-23 12:35:34 INFO: last average accuracy is 0.9657
2018-02-23 12:35:35 INFO: train | epoch 76 | loss: 0.0536 | accuracy: 0.9830 | lr: 0.001000 | using time: 59.331
…
2018-02-23 13:22:57 INFO: train | epoch 122 | loss: 0.0282 | accuracy: 0.9924 | lr: 0.001000 | using time: 61.408
2018-02-23 13:22:57 INFO: last average accuracy is 0.9918
2018-02-23 13:23:00 INFO: test | loss: 0.4400 | accuracy: 0.8905 | lr: 0.001000 | using time: 2.787
2018-02-23 13:23:02 INFO: Load CIFAR10 train data OK. data size is (50000, 32, 32, 3)
2018-02-23 13:23:02 INFO: Load CIFAR10 test data OK. data size is (10000, 32, 32, 3)
2018-02-23 13:23:02 INFO: model name:prelu_cnn5
2018-02-23 13:23:02 INFO: model architecture:
CNNPReLU(
  (conv1): Conv2d (3, 16, kernel_size=(3, 3), stride=(1, 1), padding=(1, 1), bias=False)
  (bn1): BatchNorm2d(16, eps=1e-05, momentum=0.1, affine=True)
  (relu): PReLU(num_parameters=1)
  (layer1): Sequential(
    (0): Conv2d (16, 16, kernel_size=(3, 3), stride=(1, 1), padding=(1, 1), bias=False)
    (1): BatchNorm2d(16, eps=1e-05, momentum=0.1, affine=True)
    (2): PReLU(num_parameters=1)
    (3): Conv2d (16, 16, kernel_size=(3, 3), stride=(1, 1), padding=(1, 1), bias=False)
    (4): BatchNorm2d(16, eps=1e-05, momentum=0.1, affine=True)
    (5): PReLU(num_parameters=1)
    (6): Conv2d (16, 16, kernel_size=(3, 3), stride=(1, 1), padding=(1, 1), bias=False)
    (7): BatchNorm2d(16, eps=1e-05, momentum=0.1, affine=True)
    (8): PReLU(num_parameters=1)
    (9): Conv2d (16, 16, kernel_size=(3, 3), stride=(1, 1), padding=(1, 1), bias=False)
    (10): BatchNorm2d(16, eps=1e-05, momentum=0.1, affine=True)
    (11): PReLU(num_parameters=1)
    (12): Conv2d (16, 16, kernel_size=(3, 3), stride=(1, 1), padding=(1, 1), bias=False)
    (13): BatchNorm2d(16, eps=1e-05, momentum=0.1, affine=True)
    (14): PReLU(num_parameters=1)
  )
  (layer2): Sequential(
    (0): Conv2d (16, 32, kernel_size=(3, 3), stride=(2, 2), padding=(1, 1), bias=False)
    (1): BatchNorm2d(32, eps=1e-05, momentum=0.1, affine=True)
    (2): PReLU(num_parameters=1)
    (3): Conv2d (32, 32, kernel_size=(3, 3), stride=(1, 1), padding=(1, 1), bias=False)
    (4): BatchNorm2d(32, eps=1e-05, momentum=0.1, affine=True)
    (5): PReLU(num_parameters=1)
    (6): Conv2d (32, 32, kernel_size=(3, 3), stride=(1, 1), padding=(1, 1), bias=False)
    (7): BatchNorm2d(32, eps=1e-05, momentum=0.1, affine=True)
    (8): PReLU(num_parameters=1)
    (9): Conv2d (32, 32, kernel_size=(3, 3), stride=(1, 1), padding=(1, 1), bias=False)
    (10): BatchNorm2d(32, eps=1e-05, momentum=0.1, affine=True)
    (11): PReLU(num_parameters=1)
    (12): Conv2d (32, 32, kernel_size=(3, 3), stride=(1, 1), padding=(1, 1), bias=False)
    (13): BatchNorm2d(32, eps=1e-05, momentum=0.1, affine=True)
    (14): PReLU(num_parameters=1)
  )
  (layer3): Sequential(
    (0): Conv2d (32, 64, kernel_size=(3, 3), stride=(2, 2), padding=(1, 1), bias=False)
    (1): BatchNorm2d(64, eps=1e-05, momentum=0.1, affine=True)
    (2): PReLU(num_parameters=1)
    (3): Conv2d (64, 64, kernel_size=(3, 3), stride=(1, 1), padding=(1, 1), bias=False)
    (4): BatchNorm2d(64, eps=1e-05, momentum=0.1, affine=True)
    (5): PReLU(num_parameters=1)
    (6): Conv2d (64, 64, kernel_size=(3, 3), stride=(1, 1), padding=(1, 1), bias=False)
    (7): BatchNorm2d(64, eps=1e-05, momentum=0.1, affine=True)
    (8): PReLU(num_parameters=1)
    (9): Conv2d (64, 64, kernel_size=(3, 3), stride=(1, 1), padding=(1, 1), bias=False)
    (10): BatchNorm2d(64, eps=1e-05, momentum=0.1, affine=True)
    (11): PReLU(num_parameters=1)
    (12): Conv2d (64, 64, kernel_size=(3, 3), stride=(1, 1), padding=(1, 1), bias=False)
    (13): BatchNorm2d(64, eps=1e-05, momentum=0.1, affine=True)
    (14): PReLU(num_parameters=1)
  )
  (avgpool): AdaptiveAvgPool2d(output_size=1)
  (fc): Linear(in_features=64, out_features=10)
)
2018-02-23 13:23:14 INFO: train | epoch 39 | loss: 0.6344 | accuracy: 0.7772 | lr: 0.001000 | using time: 58.774
2018-02-23 13:23:14 INFO: last average accuracy is 0.7708
2018-02-23 13:23:16 INFO: test | loss: 0.7301 | accuracy: 0.7455 | lr: 0.001000 | using time: 2.603
2018-02-23 13:23:20 INFO: train | epoch 122 | loss: 0.0411 | accuracy: 0.9889 | lr: 0.000100 | using time: 57.425
…
2018-02-23 13:30:34 INFO: train | epoch 129 | loss: 0.0336 | accuracy: 0.9911 | lr: 0.000001 | using time: 57.014
2018-02-23 13:30:34 INFO: last average accuracy is 0.9913
2018-02-23 13:30:37 INFO: test | loss: 0.4917 | accuracy: 0.8805 | lr: 0.000001 | using time: 2.725
2018-02-23 13:30:37 INFO: Load CIFAR10 train data OK. data size is (50000, 32, 32, 3)
2018-02-23 13:30:37 INFO: Load CIFAR10 test data OK. data size is (10000, 32, 32, 3)
2018-02-23 13:30:37 INFO: model name:prelu_cnn7
2018-02-23 13:30:37 INFO: model architecture:
CNNPReLU(
  (conv1): Conv2d (3, 16, kernel_size=(3, 3), stride=(1, 1), padding=(1, 1), bias=False)
  (bn1): BatchNorm2d(16, eps=1e-05, momentum=0.1, affine=True)
  (relu): PReLU(num_parameters=1)
  (layer1): Sequential(
    (0): Conv2d (16, 16, kernel_size=(3, 3), stride=(1, 1), padding=(1, 1), bias=False)
    (1): BatchNorm2d(16, eps=1e-05, momentum=0.1, affine=True)
    (2): PReLU(num_parameters=1)
    (3): Conv2d (16, 16, kernel_size=(3, 3), stride=(1, 1), padding=(1, 1), bias=False)
    (4): BatchNorm2d(16, eps=1e-05, momentum=0.1, affine=True)
    (5): PReLU(num_parameters=1)
    (6): Conv2d (16, 16, kernel_size=(3, 3), stride=(1, 1), padding=(1, 1), bias=False)
    (7): BatchNorm2d(16, eps=1e-05, momentum=0.1, affine=True)
    (8): PReLU(num_parameters=1)
    (9): Conv2d (16, 16, kernel_size=(3, 3), stride=(1, 1), padding=(1, 1), bias=False)
    (10): BatchNorm2d(16, eps=1e-05, momentum=0.1, affine=True)
    (11): PReLU(num_parameters=1)
    (12): Conv2d (16, 16, kernel_size=(3, 3), stride=(1, 1), padding=(1, 1), bias=False)
    (13): BatchNorm2d(16, eps=1e-05, momentum=0.1, affine=True)
    (14): PReLU(num_parameters=1)
    (15): Conv2d (16, 16, kernel_size=(3, 3), stride=(1, 1), padding=(1, 1), bias=False)
    (16): BatchNorm2d(16, eps=1e-05, momentum=0.1, affine=True)
    (17): PReLU(num_parameters=1)
    (18): Conv2d (16, 16, kernel_size=(3, 3), stride=(1, 1), padding=(1, 1), bias=False)
    (19): BatchNorm2d(16, eps=1e-05, momentum=0.1, affine=True)
    (20): PReLU(num_parameters=1)
  )
  (layer2): Sequential(
    (0): Conv2d (16, 32, kernel_size=(3, 3), stride=(2, 2), padding=(1, 1), bias=False)
    (1): BatchNorm2d(32, eps=1e-05, momentum=0.1, affine=True)
    (2): PReLU(num_parameters=1)
    (3): Conv2d (32, 32, kernel_size=(3, 3), stride=(1, 1), padding=(1, 1), bias=False)
    (4): BatchNorm2d(32, eps=1e-05, momentum=0.1, affine=True)
    (5): PReLU(num_parameters=1)
    (6): Conv2d (32, 32, kernel_size=(3, 3), stride=(1, 1), padding=(1, 1), bias=False)
    (7): BatchNorm2d(32, eps=1e-05, momentum=0.1, affine=True)
    (8): PReLU(num_parameters=1)
    (9): Conv2d (32, 32, kernel_size=(3, 3), stride=(1, 1), padding=(1, 1), bias=False)
    (10): BatchNorm2d(32, eps=1e-05, momentum=0.1, affine=True)
    (11): PReLU(num_parameters=1)
    (12): Conv2d (32, 32, kernel_size=(3, 3), stride=(1, 1), padding=(1, 1), bias=False)
    (13): BatchNorm2d(32, eps=1e-05, momentum=0.1, affine=True)
    (14): PReLU(num_parameters=1)
    (15): Conv2d (32, 32, kernel_size=(3, 3), stride=(1, 1), padding=(1, 1), bias=False)
    (16): BatchNorm2d(32, eps=1e-05, momentum=0.1, affine=True)
    (17): PReLU(num_parameters=1)
    (18): Conv2d (32, 32, kernel_size=(3, 3), stride=(1, 1), padding=(1, 1), bias=False)
    (19): BatchNorm2d(32, eps=1e-05, momentum=0.1, affine=True)
    (20): PReLU(num_parameters=1)
  )
  (layer3): Sequential(
    (0): Conv2d (32, 64, kernel_size=(3, 3), stride=(2, 2), padding=(1, 1), bias=False)
    (1): BatchNorm2d(64, eps=1e-05, momentum=0.1, affine=True)
    (2): PReLU(num_parameters=1)
    (3): Conv2d (64, 64, kernel_size=(3, 3), stride=(1, 1), padding=(1, 1), bias=False)
    (4): BatchNorm2d(64, eps=1e-05, momentum=0.1, affine=True)
    (5): PReLU(num_parameters=1)
    (6): Conv2d (64, 64, kernel_size=(3, 3), stride=(1, 1), padding=(1, 1), bias=False)
    (7): BatchNorm2d(64, eps=1e-05, momentum=0.1, affine=True)
    (8): PReLU(num_parameters=1)
    (9): Conv2d (64, 64, kernel_size=(3, 3), stride=(1, 1), padding=(1, 1), bias=False)
    (10): BatchNorm2d(64, eps=1e-05, momentum=0.1, affine=True)
    (11): PReLU(num_parameters=1)
    (12): Conv2d (64, 64, kernel_size=(3, 3), stride=(1, 1), padding=(1, 1), bias=False)
    (13): BatchNorm2d(64, eps=1e-05, momentum=0.1, affine=True)
    (14): PReLU(num_parameters=1)
    (15): Conv2d (64, 64, kernel_size=(3, 3), stride=(1, 1), padding=(1, 1), bias=False)
    (16): BatchNorm2d(64, eps=1e-05, momentum=0.1, affine=True)
    (17): PReLU(num_parameters=1)
    (18): Conv2d (64, 64, kernel_size=(3, 3), stride=(1, 1), padding=(1, 1), bias=False)
    (19): BatchNorm2d(64, eps=1e-05, momentum=0.1, affine=True)
    (20): PReLU(num_parameters=1)
  )
  (avgpool): AdaptiveAvgPool2d(output_size=1)
  (fc): Linear(in_features=64, out_features=10)
)
2018-02-23 13:30:38 INFO: train | epoch 134 | loss: 0.1060 | accuracy: 0.9671 | lr: 0.000001 | using time: 55.779
2018-02-23 13:30:38 INFO: last average accuracy is 0.9678
2018-02-23 13:30:40 INFO: train | epoch 45 | loss: 0.2062 | accuracy: 0.9294 | lr: 0.010000 | using time: 59.202
2018-02-23 13:30:40 INFO: last average accuracy is 0.9265
2018-02-23 13:30:41 INFO: test | loss: 0.4752 | accuracy: 0.8624 | lr: 0.000001 | using time: 2.736
…
2018-02-23 13:35:43 INFO: train | epoch 139 | loss: 0.1059 | accuracy: 0.9675 | lr: 0.000001 | using time: 57.990
2018-02-23 13:35:43 INFO: last average accuracy is 0.9678
2018-02-23 13:35:46 INFO: test | loss: 0.4723 | accuracy: 0.8628 | lr: 0.000001 | using time: 2.725
2018-02-23 13:35:53 INFO: Load CIFAR10 train data OK. data size is (50000, 32, 32, 3)
2018-02-23 13:35:53 INFO: Load CIFAR10 test data OK. data size is (10000, 32, 32, 3)
2018-02-23 13:35:53 INFO: model name:mobile_net1
2018-02-23 13:35:53 INFO: model architecture:
MobileNet(
  (conv1): Sequential(
    (0): Conv2d (3, 3, kernel_size=(3, 3), stride=(1, 1), padding=(1, 1), groups=3, bias=False)
    (1): BatchNorm2d(3, eps=1e-05, momentum=0.1, affine=True)
    (2): ReLU(inplace)
    (3): Conv2d (3, 16, kernel_size=(1, 1), stride=(1, 1), bias=False)
    (4): BatchNorm2d(16, eps=1e-05, momentum=0.1, affine=True)
    (5): ReLU(inplace)
  )
  (layer1): Sequential(
    (0): Sequential(
      (0): Conv2d (16, 16, kernel_size=(3, 3), stride=(1, 1), padding=(1, 1), groups=16, bias=False)
      (1): BatchNorm2d(16, eps=1e-05, momentum=0.1, affine=True)
      (2): ReLU(inplace)
      (3): Conv2d (16, 16, kernel_size=(1, 1), stride=(1, 1), bias=False)
      (4): BatchNorm2d(16, eps=1e-05, momentum=0.1, affine=True)
      (5): ReLU(inplace)
    )
  )
  (layer2): Sequential(
    (0): Sequential(
      (0): Conv2d (16, 16, kernel_size=(3, 3), stride=(2, 2), padding=(1, 1), groups=16, bias=False)
      (1): BatchNorm2d(16, eps=1e-05, momentum=0.1, affine=True)
      (2): ReLU(inplace)
      (3): Conv2d (16, 32, kernel_size=(1, 1), stride=(1, 1), bias=False)
      (4): BatchNorm2d(32, eps=1e-05, momentum=0.1, affine=True)
      (5): ReLU(inplace)
    )
  )
  (layer3): Sequential(
    (0): Sequential(
      (0): Conv2d (32, 32, kernel_size=(3, 3), stride=(2, 2), padding=(1, 1), groups=32, bias=False)
      (1): BatchNorm2d(32, eps=1e-05, momentum=0.1, affine=True)
      (2): ReLU(inplace)
      (3): Conv2d (32, 64, kernel_size=(1, 1), stride=(1, 1), bias=False)
      (4): BatchNorm2d(64, eps=1e-05, momentum=0.1, affine=True)
      (5): ReLU(inplace)
    )
  )
  (avgpool): AdaptiveAvgPool2d(output_size=1)
  (fc): Linear(in_features=64, out_features=10)
)
2018-02-23 13:36:04 INFO: train | epoch 50 | loss: 0.1995 | accuracy: 0.9310 | lr: 0.010000 | using time: 64.212
2018-02-23 13:36:04 INFO: last average accuracy is 0.9290
2018-02-23 13:36:05 INFO: train | epoch 2 | loss: 0.4192 | accuracy: 0.8540 | lr: 0.100000 | using time: 67.624
2018-02-23 13:36:05 INFO: last average accuracy is 0.8539
2018-02-23 13:36:07 INFO: test | loss: 0.5260 | accuracy: 0.8374 | lr: 0.010000 | using time: 2.967
…
2018-02-23 13:40:33 INFO: train | epoch 139 | loss: 0.0322 | accuracy: 0.9920 | lr: 0.000001 | using time: 58.015
2018-02-23 13:40:33 INFO: last average accuracy is 0.9916
2018-02-23 13:40:36 INFO: test | loss: 0.4851 | accuracy: 0.8808 | lr: 0.000001 | using time: 2.839
2018-02-23 13:40:43 INFO: Load CIFAR10 train data OK. data size is (50000, 32, 32, 3)
2018-02-23 13:40:43 INFO: Load CIFAR10 test data OK. data size is (10000, 32, 32, 3)
2018-02-23 13:40:43 INFO: model name:mobile_net3
2018-02-23 13:40:43 INFO: model architecture:
MobileNet(
  (conv1): Sequential(
    (0): Conv2d (3, 3, kernel_size=(3, 3), stride=(1, 1), padding=(1, 1), groups=3, bias=False)
    (1): BatchNorm2d(3, eps=1e-05, momentum=0.1, affine=True)
    (2): ReLU(inplace)
    (3): Conv2d (3, 16, kernel_size=(1, 1), stride=(1, 1), bias=False)
    (4): BatchNorm2d(16, eps=1e-05, momentum=0.1, affine=True)
    (5): ReLU(inplace)
  )
  (layer1): Sequential(
    (0): Sequential(
      (0): Conv2d (16, 16, kernel_size=(3, 3), stride=(1, 1), padding=(1, 1), groups=16, bias=False)
      (1): BatchNorm2d(16, eps=1e-05, momentum=0.1, affine=True)
      (2): ReLU(inplace)
      (3): Conv2d (16, 16, kernel_size=(1, 1), stride=(1, 1), bias=False)
      (4): BatchNorm2d(16, eps=1e-05, momentum=0.1, affine=True)
      (5): ReLU(inplace)
    )
    (1): Sequential(
      (0): Conv2d (16, 16, kernel_size=(3, 3), stride=(1, 1), padding=(1, 1), groups=16, bias=False)
      (1): BatchNorm2d(16, eps=1e-05, momentum=0.1, affine=True)
      (2): ReLU(inplace)
      (3): Conv2d (16, 16, kernel_size=(1, 1), stride=(1, 1), bias=False)
      (4): BatchNorm2d(16, eps=1e-05, momentum=0.1, affine=True)
      (5): ReLU(inplace)
    )
    (2): Sequential(
      (0): Conv2d (16, 16, kernel_size=(3, 3), stride=(1, 1), padding=(1, 1), groups=16, bias=False)
      (1): BatchNorm2d(16, eps=1e-05, momentum=0.1, affine=True)
      (2): ReLU(inplace)
      (3): Conv2d (16, 16, kernel_size=(1, 1), stride=(1, 1), bias=False)
      (4): BatchNorm2d(16, eps=1e-05, momentum=0.1, affine=True)
      (5): ReLU(inplace)
    )
  )
  (layer2): Sequential(
    (0): Sequential(
      (0): Conv2d (16, 16, kernel_size=(3, 3), stride=(2, 2), padding=(1, 1), groups=16, bias=False)
      (1): BatchNorm2d(16, eps=1e-05, momentum=0.1, affine=True)
      (2): ReLU(inplace)
      (3): Conv2d (16, 32, kernel_size=(1, 1), stride=(1, 1), bias=False)
      (4): BatchNorm2d(32, eps=1e-05, momentum=0.1, affine=True)
      (5): ReLU(inplace)
    )
    (1): Sequential(
      (0): Conv2d (32, 32, kernel_size=(3, 3), stride=(1, 1), padding=(1, 1), groups=32, bias=False)
      (1): BatchNorm2d(32, eps=1e-05, momentum=0.1, affine=True)
      (2): ReLU(inplace)
      (3): Conv2d (32, 32, kernel_size=(1, 1), stride=(1, 1), bias=False)
      (4): BatchNorm2d(32, eps=1e-05, momentum=0.1, affine=True)
      (5): ReLU(inplace)
    )
    (2): Sequential(
      (0): Conv2d (32, 32, kernel_size=(3, 3), stride=(1, 1), padding=(1, 1), groups=32, bias=False)
      (1): BatchNorm2d(32, eps=1e-05, momentum=0.1, affine=True)
      (2): ReLU(inplace)
      (3): Conv2d (32, 32, kernel_size=(1, 1), stride=(1, 1), bias=False)
      (4): BatchNorm2d(32, eps=1e-05, momentum=0.1, affine=True)
      (5): ReLU(inplace)
    )
  )
  (layer3): Sequential(
    (0): Sequential(
      (0): Conv2d (32, 32, kernel_size=(3, 3), stride=(2, 2), padding=(1, 1), groups=32, bias=False)
      (1): BatchNorm2d(32, eps=1e-05, momentum=0.1, affine=True)
      (2): ReLU(inplace)
      (3): Conv2d (32, 64, kernel_size=(1, 1), stride=(1, 1), bias=False)
      (4): BatchNorm2d(64, eps=1e-05, momentum=0.1, affine=True)
      (5): ReLU(inplace)
    )
    (1): Sequential(
      (0): Conv2d (64, 64, kernel_size=(3, 3), stride=(1, 1), padding=(1, 1), groups=64, bias=False)
      (1): BatchNorm2d(64, eps=1e-05, momentum=0.1, affine=True)
      (2): ReLU(inplace)
      (3): Conv2d (64, 64, kernel_size=(1, 1), stride=(1, 1), bias=False)
      (4): BatchNorm2d(64, eps=1e-05, momentum=0.1, affine=True)
      (5): ReLU(inplace)
    )
    (2): Sequential(
      (0): Conv2d (64, 64, kernel_size=(3, 3), stride=(1, 1), padding=(1, 1), groups=64, bias=False)
      (1): BatchNorm2d(64, eps=1e-05, momentum=0.1, affine=True)
      (2): ReLU(inplace)
      (3): Conv2d (64, 64, kernel_size=(1, 1), stride=(1, 1), bias=False)
      (4): BatchNorm2d(64, eps=1e-05, momentum=0.1, affine=True)
      (5): ReLU(inplace)
    )
  )
  (avgpool): AdaptiveAvgPool2d(output_size=1)
  (fc): Linear(in_features=64, out_features=10)
)
2018-02-23 13:40:56 INFO: train | epoch 6 | loss: 0.4114 | accuracy: 0.8552 | lr: 0.100000 | using time: 69.679
2018-02-23 13:40:56 INFO: last average accuracy is 0.8539
2018-02-23 13:40:59 INFO: test | loss: 0.6997 | accuracy: 0.7736 | lr: 0.100000 | using time: 2.986
2018-02-23 13:41:04 INFO: train | epoch 1 | loss: 0.4057 | accuracy: 0.8599 | lr: 0.100000 | using time: 74.167
…
2018-02-23 13:48:40 INFO: train | epoch 7 | loss: 0.3989 | accuracy: 0.8611 | lr: 0.100000 | using time: 74.116
2018-02-23 13:48:40 INFO: last average accuracy is 0.8589
2018-02-23 13:48:43 INFO: test | loss: 0.6402 | accuracy: 0.7885 | lr: 0.100000 | using time: 2.828
2018-02-23 13:48:43 INFO: Load CIFAR10 train data OK. data size is (50000, 32, 32, 3)
2018-02-23 13:48:43 INFO: Load CIFAR10 test data OK. data size is (10000, 32, 32, 3)
2018-02-23 13:48:43 INFO: model name:mobile_net5
2018-02-23 13:48:43 INFO: model architecture:
MobileNet(
  (conv1): Sequential(
    (0): Conv2d (3, 3, kernel_size=(3, 3), stride=(1, 1), padding=(1, 1), groups=3, bias=False)
    (1): BatchNorm2d(3, eps=1e-05, momentum=0.1, affine=True)
    (2): ReLU(inplace)
    (3): Conv2d (3, 16, kernel_size=(1, 1), stride=(1, 1), bias=False)
    (4): BatchNorm2d(16, eps=1e-05, momentum=0.1, affine=True)
    (5): ReLU(inplace)
  )
  (layer1): Sequential(
    (0): Sequential(
      (0): Conv2d (16, 16, kernel_size=(3, 3), stride=(1, 1), padding=(1, 1), groups=16, bias=False)
      (1): BatchNorm2d(16, eps=1e-05, momentum=0.1, affine=True)
      (2): ReLU(inplace)
      (3): Conv2d (16, 16, kernel_size=(1, 1), stride=(1, 1), bias=False)
      (4): BatchNorm2d(16, eps=1e-05, momentum=0.1, affine=True)
      (5): ReLU(inplace)
    )
    (1): Sequential(
      (0): Conv2d (16, 16, kernel_size=(3, 3), stride=(1, 1), padding=(1, 1), groups=16, bias=False)
      (1): BatchNorm2d(16, eps=1e-05, momentum=0.1, affine=True)
      (2): ReLU(inplace)
      (3): Conv2d (16, 16, kernel_size=(1, 1), stride=(1, 1), bias=False)
      (4): BatchNorm2d(16, eps=1e-05, momentum=0.1, affine=True)
      (5): ReLU(inplace)
    )
    (2): Sequential(
      (0): Conv2d (16, 16, kernel_size=(3, 3), stride=(1, 1), padding=(1, 1), groups=16, bias=False)
      (1): BatchNorm2d(16, eps=1e-05, momentum=0.1, affine=True)
      (2): ReLU(inplace)
      (3): Conv2d (16, 16, kernel_size=(1, 1), stride=(1, 1), bias=False)
      (4): BatchNorm2d(16, eps=1e-05, momentum=0.1, affine=True)
      (5): ReLU(inplace)
    )
    (3): Sequential(
      (0): Conv2d (16, 16, kernel_size=(3, 3), stride=(1, 1), padding=(1, 1), groups=16, bias=False)
      (1): BatchNorm2d(16, eps=1e-05, momentum=0.1, affine=True)
      (2): ReLU(inplace)
      (3): Conv2d (16, 16, kernel_size=(1, 1), stride=(1, 1), bias=False)
      (4): BatchNorm2d(16, eps=1e-05, momentum=0.1, affine=True)
      (5): ReLU(inplace)
    )
    (4): Sequential(
      (0): Conv2d (16, 16, kernel_size=(3, 3), stride=(1, 1), padding=(1, 1), groups=16, bias=False)
      (1): BatchNorm2d(16, eps=1e-05, momentum=0.1, affine=True)
      (2): ReLU(inplace)
      (3): Conv2d (16, 16, kernel_size=(1, 1), stride=(1, 1), bias=False)
      (4): BatchNorm2d(16, eps=1e-05, momentum=0.1, affine=True)
      (5): ReLU(inplace)
    )
  )
  (layer2): Sequential(
    (0): Sequential(
      (0): Conv2d (16, 16, kernel_size=(3, 3), stride=(2, 2), padding=(1, 1), groups=16, bias=False)
      (1): BatchNorm2d(16, eps=1e-05, momentum=0.1, affine=True)
      (2): ReLU(inplace)
      (3): Conv2d (16, 32, kernel_size=(1, 1), stride=(1, 1), bias=False)
      (4): BatchNorm2d(32, eps=1e-05, momentum=0.1, affine=True)
      (5): ReLU(inplace)
    )
    (1): Sequential(
      (0): Conv2d (32, 32, kernel_size=(3, 3), stride=(1, 1), padding=(1, 1), groups=32, bias=False)
      (1): BatchNorm2d(32, eps=1e-05, momentum=0.1, affine=True)
      (2): ReLU(inplace)
      (3): Conv2d (32, 32, kernel_size=(1, 1), stride=(1, 1), bias=False)
      (4): BatchNorm2d(32, eps=1e-05, momentum=0.1, affine=True)
      (5): ReLU(inplace)
    )
    (2): Sequential(
      (0): Conv2d (32, 32, kernel_size=(3, 3), stride=(1, 1), padding=(1, 1), groups=32, bias=False)
      (1): BatchNorm2d(32, eps=1e-05, momentum=0.1, affine=True)
      (2): ReLU(inplace)
      (3): Conv2d (32, 32, kernel_size=(1, 1), stride=(1, 1), bias=False)
      (4): BatchNorm2d(32, eps=1e-05, momentum=0.1, affine=True)
      (5): ReLU(inplace)
    )
    (3): Sequential(
      (0): Conv2d (32, 32, kernel_size=(3, 3), stride=(1, 1), padding=(1, 1), groups=32, bias=False)
      (1): BatchNorm2d(32, eps=1e-05, momentum=0.1, affine=True)
      (2): ReLU(inplace)
      (3): Conv2d (32, 32, kernel_size=(1, 1), stride=(1, 1), bias=False)
      (4): BatchNorm2d(32, eps=1e-05, momentum=0.1, affine=True)
      (5): ReLU(inplace)
    )
    (4): Sequential(
      (0): Conv2d (32, 32, kernel_size=(3, 3), stride=(1, 1), padding=(1, 1), groups=32, bias=False)
      (1): BatchNorm2d(32, eps=1e-05, momentum=0.1, affine=True)
      (2): ReLU(inplace)
      (3): Conv2d (32, 32, kernel_size=(1, 1), stride=(1, 1), bias=False)
      (4): BatchNorm2d(32, eps=1e-05, momentum=0.1, affine=True)
      (5): ReLU(inplace)
    )
  )
  (layer3): Sequential(
    (0): Sequential(
      (0): Conv2d (32, 32, kernel_size=(3, 3), stride=(2, 2), padding=(1, 1), groups=32, bias=False)
      (1): BatchNorm2d(32, eps=1e-05, momentum=0.1, affine=True)
      (2): ReLU(inplace)
      (3): Conv2d (32, 64, kernel_size=(1, 1), stride=(1, 1), bias=False)
      (4): BatchNorm2d(64, eps=1e-05, momentum=0.1, affine=True)
      (5): ReLU(inplace)
    )
    (1): Sequential(
      (0): Conv2d (64, 64, kernel_size=(3, 3), stride=(1, 1), padding=(1, 1), groups=64, bias=False)
      (1): BatchNorm2d(64, eps=1e-05, momentum=0.1, affine=True)
      (2): ReLU(inplace)
      (3): Conv2d (64, 64, kernel_size=(1, 1), stride=(1, 1), bias=False)
      (4): BatchNorm2d(64, eps=1e-05, momentum=0.1, affine=True)
      (5): ReLU(inplace)
    )
    (2): Sequential(
      (0): Conv2d (64, 64, kernel_size=(3, 3), stride=(1, 1), padding=(1, 1), groups=64, bias=False)
      (1): BatchNorm2d(64, eps=1e-05, momentum=0.1, affine=True)
      (2): ReLU(inplace)
      (3): Conv2d (64, 64, kernel_size=(1, 1), stride=(1, 1), bias=False)
      (4): BatchNorm2d(64, eps=1e-05, momentum=0.1, affine=True)
      (5): ReLU(inplace)
    )
    (3): Sequential(
      (0): Conv2d (64, 64, kernel_size=(3, 3), stride=(1, 1), padding=(1, 1), groups=64, bias=False)
      (1): BatchNorm2d(64, eps=1e-05, momentum=0.1, affine=True)
      (2): ReLU(inplace)
      (3): Conv2d (64, 64, kernel_size=(1, 1), stride=(1, 1), bias=False)
      (4): BatchNorm2d(64, eps=1e-05, momentum=0.1, affine=True)
      (5): ReLU(inplace)
    )
    (4): Sequential(
      (0): Conv2d (64, 64, kernel_size=(3, 3), stride=(1, 1), padding=(1, 1), groups=64, bias=False)
      (1): BatchNorm2d(64, eps=1e-05, momentum=0.1, affine=True)
      (2): ReLU(inplace)
      (3): Conv2d (64, 64, kernel_size=(1, 1), stride=(1, 1), bias=False)
      (4): BatchNorm2d(64, eps=1e-05, momentum=0.1, affine=True)
      (5): ReLU(inplace)
    )
  )
  (avgpool): AdaptiveAvgPool2d(output_size=1)
  (fc): Linear(in_features=64, out_features=10)
)
2018-02-23 13:48:53 INFO: train | epoch 3 | loss: 0.9916 | accuracy: 0.6515 | lr: 0.100000 | using time: 55.403
2018-02-23 13:48:53 INFO: last average accuracy is 0.6460
2018-02-23 13:48:55 INFO: test | loss: 1.8576 | accuracy: 0.4289 | lr: 0.100000 | using time: 2.675
2018-02-23 13:49:07 INFO: train | epoch 62 | loss: 0.1883 | accuracy: 0.9346 | lr: 0.010000 | using time: 61.638
…
2018-02-23 13:58:41 INFO: train | epoch 8 | loss: 0.5800 | accuracy: 0.7960 | lr: 0.100000 | using time: 57.433
2018-02-23 13:58:41 INFO: last average accuracy is 0.7808
2018-02-23 13:58:43 INFO: test | loss: 0.7281 | accuracy: 0.7450 | lr: 0.000001 | using time: 2.506
2018-02-23 13:58:44 INFO: Load CIFAR10 train data OK. data size is (50000, 32, 32, 3)
2018-02-23 13:58:44 INFO: Load CIFAR10 test data OK. data size is (10000, 32, 32, 3)
2018-02-23 13:58:44 INFO: model name:mobile_net7
2018-02-23 13:58:44 INFO: model architecture:
MobileNet(
  (conv1): Sequential(
    (0): Conv2d (3, 3, kernel_size=(3, 3), stride=(1, 1), padding=(1, 1), groups=3, bias=False)
    (1): BatchNorm2d(3, eps=1e-05, momentum=0.1, affine=True)
    (2): ReLU(inplace)
    (3): Conv2d (3, 16, kernel_size=(1, 1), stride=(1, 1), bias=False)
    (4): BatchNorm2d(16, eps=1e-05, momentum=0.1, affine=True)
    (5): ReLU(inplace)
  )
  (layer1): Sequential(
    (0): Sequential(
      (0): Conv2d (16, 16, kernel_size=(3, 3), stride=(1, 1), padding=(1, 1), groups=16, bias=False)
      (1): BatchNorm2d(16, eps=1e-05, momentum=0.1, affine=True)
      (2): ReLU(inplace)
      (3): Conv2d (16, 16, kernel_size=(1, 1), stride=(1, 1), bias=False)
      (4): BatchNorm2d(16, eps=1e-05, momentum=0.1, affine=True)
      (5): ReLU(inplace)
    )
    (1): Sequential(
      (0): Conv2d (16, 16, kernel_size=(3, 3), stride=(1, 1), padding=(1, 1), groups=16, bias=False)
      (1): BatchNorm2d(16, eps=1e-05, momentum=0.1, affine=True)
      (2): ReLU(inplace)
      (3): Conv2d (16, 16, kernel_size=(1, 1), stride=(1, 1), bias=False)
      (4): BatchNorm2d(16, eps=1e-05, momentum=0.1, affine=True)
      (5): ReLU(inplace)
    )
    (2): Sequential(
      (0): Conv2d (16, 16, kernel_size=(3, 3), stride=(1, 1), padding=(1, 1), groups=16, bias=False)
      (1): BatchNorm2d(16, eps=1e-05, momentum=0.1, affine=True)
      (2): ReLU(inplace)
      (3): Conv2d (16, 16, kernel_size=(1, 1), stride=(1, 1), bias=False)
      (4): BatchNorm2d(16, eps=1e-05, momentum=0.1, affine=True)
      (5): ReLU(inplace)
    )
    (3): Sequential(
      (0): Conv2d (16, 16, kernel_size=(3, 3), stride=(1, 1), padding=(1, 1), groups=16, bias=False)
      (1): BatchNorm2d(16, eps=1e-05, momentum=0.1, affine=True)
      (2): ReLU(inplace)
      (3): Conv2d (16, 16, kernel_size=(1, 1), stride=(1, 1), bias=False)
      (4): BatchNorm2d(16, eps=1e-05, momentum=0.1, affine=True)
      (5): ReLU(inplace)
    )
    (4): Sequential(
      (0): Conv2d (16, 16, kernel_size=(3, 3), stride=(1, 1), padding=(1, 1), groups=16, bias=False)
      (1): BatchNorm2d(16, eps=1e-05, momentum=0.1, affine=True)
      (2): ReLU(inplace)
      (3): Conv2d (16, 16, kernel_size=(1, 1), stride=(1, 1), bias=False)
      (4): BatchNorm2d(16, eps=1e-05, momentum=0.1, affine=True)
      (5): ReLU(inplace)
    )
    (5): Sequential(
      (0): Conv2d (16, 16, kernel_size=(3, 3), stride=(1, 1), padding=(1, 1), groups=16, bias=False)
      (1): BatchNorm2d(16, eps=1e-05, momentum=0.1, affine=True)
      (2): ReLU(inplace)
      (3): Conv2d (16, 16, kernel_size=(1, 1), stride=(1, 1), bias=False)
      (4): BatchNorm2d(16, eps=1e-05, momentum=0.1, affine=True)
      (5): ReLU(inplace)
    )
    (6): Sequential(
      (0): Conv2d (16, 16, kernel_size=(3, 3), stride=(1, 1), padding=(1, 1), groups=16, bias=False)
      (1): BatchNorm2d(16, eps=1e-05, momentum=0.1, affine=True)
      (2): ReLU(inplace)
      (3): Conv2d (16, 16, kernel_size=(1, 1), stride=(1, 1), bias=False)
      (4): BatchNorm2d(16, eps=1e-05, momentum=0.1, affine=True)
      (5): ReLU(inplace)
    )
  )
  (layer2): Sequential(
    (0): Sequential(
      (0): Conv2d (16, 16, kernel_size=(3, 3), stride=(2, 2), padding=(1, 1), groups=16, bias=False)
      (1): BatchNorm2d(16, eps=1e-05, momentum=0.1, affine=True)
      (2): ReLU(inplace)
      (3): Conv2d (16, 32, kernel_size=(1, 1), stride=(1, 1), bias=False)
      (4): BatchNorm2d(32, eps=1e-05, momentum=0.1, affine=True)
      (5): ReLU(inplace)
    )
    (1): Sequential(
      (0): Conv2d (32, 32, kernel_size=(3, 3), stride=(1, 1), padding=(1, 1), groups=32, bias=False)
      (1): BatchNorm2d(32, eps=1e-05, momentum=0.1, affine=True)
      (2): ReLU(inplace)
      (3): Conv2d (32, 32, kernel_size=(1, 1), stride=(1, 1), bias=False)
      (4): BatchNorm2d(32, eps=1e-05, momentum=0.1, affine=True)
      (5): ReLU(inplace)
    )
    (2): Sequential(
      (0): Conv2d (32, 32, kernel_size=(3, 3), stride=(1, 1), padding=(1, 1), groups=32, bias=False)
      (1): BatchNorm2d(32, eps=1e-05, momentum=0.1, affine=True)
      (2): ReLU(inplace)
      (3): Conv2d (32, 32, kernel_size=(1, 1), stride=(1, 1), bias=False)
      (4): BatchNorm2d(32, eps=1e-05, momentum=0.1, affine=True)
      (5): ReLU(inplace)
    )
    (3): Sequential(
      (0): Conv2d (32, 32, kernel_size=(3, 3), stride=(1, 1), padding=(1, 1), groups=32, bias=False)
      (1): BatchNorm2d(32, eps=1e-05, momentum=0.1, affine=True)
      (2): ReLU(inplace)
      (3): Conv2d (32, 32, kernel_size=(1, 1), stride=(1, 1), bias=False)
      (4): BatchNorm2d(32, eps=1e-05, momentum=0.1, affine=True)
      (5): ReLU(inplace)
    )
    (4): Sequential(
      (0): Conv2d (32, 32, kernel_size=(3, 3), stride=(1, 1), padding=(1, 1), groups=32, bias=False)
      (1): BatchNorm2d(32, eps=1e-05, momentum=0.1, affine=True)
      (2): ReLU(inplace)
      (3): Conv2d (32, 32, kernel_size=(1, 1), stride=(1, 1), bias=False)
      (4): BatchNorm2d(32, eps=1e-05, momentum=0.1, affine=True)
      (5): ReLU(inplace)
    )
    (5): Sequential(
      (0): Conv2d (32, 32, kernel_size=(3, 3), stride=(1, 1), padding=(1, 1), groups=32, bias=False)
      (1): BatchNorm2d(32, eps=1e-05, momentum=0.1, affine=True)
      (2): ReLU(inplace)
      (3): Conv2d (32, 32, kernel_size=(1, 1), stride=(1, 1), bias=False)
      (4): BatchNorm2d(32, eps=1e-05, momentum=0.1, affine=True)
      (5): ReLU(inplace)
    )
    (6): Sequential(
      (0): Conv2d (32, 32, kernel_size=(3, 3), stride=(1, 1), padding=(1, 1), groups=32, bias=False)
      (1): BatchNorm2d(32, eps=1e-05, momentum=0.1, affine=True)
      (2): ReLU(inplace)
      (3): Conv2d (32, 32, kernel_size=(1, 1), stride=(1, 1), bias=False)
      (4): BatchNorm2d(32, eps=1e-05, momentum=0.1, affine=True)
      (5): ReLU(inplace)
    )
  )
  (layer3): Sequential(
    (0): Sequential(
      (0): Conv2d (32, 32, kernel_size=(3, 3), stride=(2, 2), padding=(1, 1), groups=32, bias=False)
      (1): BatchNorm2d(32, eps=1e-05, momentum=0.1, affine=True)
      (2): ReLU(inplace)
      (3): Conv2d (32, 64, kernel_size=(1, 1), stride=(1, 1), bias=False)
      (4): BatchNorm2d(64, eps=1e-05, momentum=0.1, affine=True)
      (5): ReLU(inplace)
    )
    (1): Sequential(
      (0): Conv2d (64, 64, kernel_size=(3, 3), stride=(1, 1), padding=(1, 1), groups=64, bias=False)
      (1): BatchNorm2d(64, eps=1e-05, momentum=0.1, affine=True)
      (2): ReLU(inplace)
      (3): Conv2d (64, 64, kernel_size=(1, 1), stride=(1, 1), bias=False)
      (4): BatchNorm2d(64, eps=1e-05, momentum=0.1, affine=True)
      (5): ReLU(inplace)
    )
    (2): Sequential(
      (0): Conv2d (64, 64, kernel_size=(3, 3), stride=(1, 1), padding=(1, 1), groups=64, bias=False)
      (1): BatchNorm2d(64, eps=1e-05, momentum=0.1, affine=True)
      (2): ReLU(inplace)
      (3): Conv2d (64, 64, kernel_size=(1, 1), stride=(1, 1), bias=False)
      (4): BatchNorm2d(64, eps=1e-05, momentum=0.1, affine=True)
      (5): ReLU(inplace)
    )
    (3): Sequential(
      (0): Conv2d (64, 64, kernel_size=(3, 3), stride=(1, 1), padding=(1, 1), groups=64, bias=False)
      (1): BatchNorm2d(64, eps=1e-05, momentum=0.1, affine=True)
      (2): ReLU(inplace)
      (3): Conv2d (64, 64, kernel_size=(1, 1), stride=(1, 1), bias=False)
      (4): BatchNorm2d(64, eps=1e-05, momentum=0.1, affine=True)
      (5): ReLU(inplace)
    )
    (4): Sequential(
      (0): Conv2d (64, 64, kernel_size=(3, 3), stride=(1, 1), padding=(1, 1), groups=64, bias=False)
      (1): BatchNorm2d(64, eps=1e-05, momentum=0.1, affine=True)
      (2): ReLU(inplace)
      (3): Conv2d (64, 64, kernel_size=(1, 1), stride=(1, 1), bias=False)
      (4): BatchNorm2d(64, eps=1e-05, momentum=0.1, affine=True)
      (5): ReLU(inplace)
    )
    (5): Sequential(
      (0): Conv2d (64, 64, kernel_size=(3, 3), stride=(1, 1), padding=(1, 1), groups=64, bias=False)
      (1): BatchNorm2d(64, eps=1e-05, momentum=0.1, affine=True)
      (2): ReLU(inplace)
      (3): Conv2d (64, 64, kernel_size=(1, 1), stride=(1, 1), bias=False)
      (4): BatchNorm2d(64, eps=1e-05, momentum=0.1, affine=True)
      (5): ReLU(inplace)
    )
    (6): Sequential(
      (0): Conv2d (64, 64, kernel_size=(3, 3), stride=(1, 1), padding=(1, 1), groups=64, bias=False)
      (1): BatchNorm2d(64, eps=1e-05, momentum=0.1, affine=True)
      (2): ReLU(inplace)
      (3): Conv2d (64, 64, kernel_size=(1, 1), stride=(1, 1), bias=False)
      (4): BatchNorm2d(64, eps=1e-05, momentum=0.1, affine=True)
      (5): ReLU(inplace)
    )
  )
  (avgpool): AdaptiveAvgPool2d(output_size=1)
  (fc): Linear(in_features=64, out_features=10)
)
2018-02-23 13:58:44 INFO: test | loss: 0.8334 | accuracy: 0.7074 | lr: 0.100000 | using time: 2.829
2018-02-23 13:58:45 INFO: train | epoch 13 | loss: 0.9886 | accuracy: 0.6485 | lr: 0.100000 | using time: 56.935
2018-02-23 13:58:45 INFO: last average accuracy is 0.6496
2018-02-23 13:58:46 INFO: train | epoch 71 | loss: 0.1547 | accuracy: 0.9479 | lr: 0.001000 | using time: 62.097
…
2018-02-23 14:05:50 INFO: train | epoch 15 | loss: 0.5723 | accuracy: 0.7975 | lr: 0.100000 | using time: 60.229
2018-02-23 14:05:50 INFO: last average accuracy is 0.7976
2018-02-23 14:05:52 INFO: test | loss: 0.7773 | accuracy: 0.7364 | lr: 0.100000 | using time: 2.801
2018-02-23 14:05:54 INFO: Load CIFAR10 train data OK. data size is (50000, 32, 32, 3)
2018-02-23 14:05:54 INFO: Load CIFAR10 test data OK. data size is (10000, 32, 32, 3)
2018-02-23 14:05:54 INFO: model name:resnet20
2018-02-23 14:05:54 INFO: model architecture:
ResNet(
  (conv1): Conv2d (3, 16, kernel_size=(3, 3), stride=(1, 1), padding=(1, 1), bias=False)
  (bn1): BatchNorm2d(16, eps=1e-05, momentum=0.1, affine=True)
  (relu): ReLU(inplace)
  (layer1): Sequential(
    (0): BasicBlock(
      (conv1): Conv2d (16, 16, kernel_size=(3, 3), stride=(1, 1), padding=(1, 1), bias=False)
      (bn1): BatchNorm2d(16, eps=1e-05, momentum=0.1, affine=True)
      (relu): ReLU(inplace)
      (conv2): Conv2d (16, 16, kernel_size=(3, 3), stride=(1, 1), padding=(1, 1), bias=False)
      (bn2): BatchNorm2d(16, eps=1e-05, momentum=0.1, affine=True)
      (downsample): Sequential(
        (0): Conv2d (16, 16, kernel_size=(1, 1), stride=(1, 1), bias=False)
        (1): BatchNorm2d(16, eps=1e-05, momentum=0.1, affine=True)
      )
    )
    (1): BasicBlock(
      (conv1): Conv2d (16, 16, kernel_size=(3, 3), stride=(1, 1), padding=(1, 1), bias=False)
      (bn1): BatchNorm2d(16, eps=1e-05, momentum=0.1, affine=True)
      (relu): ReLU(inplace)
      (conv2): Conv2d (16, 16, kernel_size=(3, 3), stride=(1, 1), padding=(1, 1), bias=False)
      (bn2): BatchNorm2d(16, eps=1e-05, momentum=0.1, affine=True)
      (downsample): Sequential(
        (0): Conv2d (16, 16, kernel_size=(1, 1), stride=(1, 1), bias=False)
        (1): BatchNorm2d(16, eps=1e-05, momentum=0.1, affine=True)
      )
    )
    (2): BasicBlock(
      (conv1): Conv2d (16, 16, kernel_size=(3, 3), stride=(1, 1), padding=(1, 1), bias=False)
      (bn1): BatchNorm2d(16, eps=1e-05, momentum=0.1, affine=True)
      (relu): ReLU(inplace)
      (conv2): Conv2d (16, 16, kernel_size=(3, 3), stride=(1, 1), padding=(1, 1), bias=False)
      (bn2): BatchNorm2d(16, eps=1e-05, momentum=0.1, affine=True)
      (downsample): Sequential(
        (0): Conv2d (16, 16, kernel_size=(1, 1), stride=(1, 1), bias=False)
        (1): BatchNorm2d(16, eps=1e-05, momentum=0.1, affine=True)
      )
    )
  )
  (layer2): Sequential(
    (0): BasicBlock(
      (conv1): Conv2d (16, 32, kernel_size=(3, 3), stride=(2, 2), padding=(1, 1), bias=False)
      (bn1): BatchNorm2d(32, eps=1e-05, momentum=0.1, affine=True)
      (relu): ReLU(inplace)
      (conv2): Conv2d (32, 32, kernel_size=(3, 3), stride=(1, 1), padding=(1, 1), bias=False)
      (bn2): BatchNorm2d(32, eps=1e-05, momentum=0.1, affine=True)
      (downsample): Sequential(
        (0): Conv2d (16, 32, kernel_size=(1, 1), stride=(2, 2), bias=False)
        (1): BatchNorm2d(32, eps=1e-05, momentum=0.1, affine=True)
      )
    )
    (1): BasicBlock(
      (conv1): Conv2d (32, 32, kernel_size=(3, 3), stride=(1, 1), padding=(1, 1), bias=False)
      (bn1): BatchNorm2d(32, eps=1e-05, momentum=0.1, affine=True)
      (relu): ReLU(inplace)
      (conv2): Conv2d (32, 32, kernel_size=(3, 3), stride=(1, 1), padding=(1, 1), bias=False)
      (bn2): BatchNorm2d(32, eps=1e-05, momentum=0.1, affine=True)
      (downsample): Sequential(
        (0): Conv2d (32, 32, kernel_size=(1, 1), stride=(1, 1), bias=False)
        (1): BatchNorm2d(32, eps=1e-05, momentum=0.1, affine=True)
      )
    )
    (2): BasicBlock(
      (conv1): Conv2d (32, 32, kernel_size=(3, 3), stride=(1, 1), padding=(1, 1), bias=False)
      (bn1): BatchNorm2d(32, eps=1e-05, momentum=0.1, affine=True)
      (relu): ReLU(inplace)
      (conv2): Conv2d (32, 32, kernel_size=(3, 3), stride=(1, 1), padding=(1, 1), bias=False)
      (bn2): BatchNorm2d(32, eps=1e-05, momentum=0.1, affine=True)
      (downsample): Sequential(
        (0): Conv2d (32, 32, kernel_size=(1, 1), stride=(1, 1), bias=False)
        (1): BatchNorm2d(32, eps=1e-05, momentum=0.1, affine=True)
      )
    )
  )
  (layer3): Sequential(
    (0): BasicBlock(
      (conv1): Conv2d (32, 64, kernel_size=(3, 3), stride=(2, 2), padding=(1, 1), bias=False)
      (bn1): BatchNorm2d(64, eps=1e-05, momentum=0.1, affine=True)
      (relu): ReLU(inplace)
      (conv2): Conv2d (64, 64, kernel_size=(3, 3), stride=(1, 1), padding=(1, 1), bias=False)
      (bn2): BatchNorm2d(64, eps=1e-05, momentum=0.1, affine=True)
      (downsample): Sequential(
        (0): Conv2d (32, 64, kernel_size=(1, 1), stride=(2, 2), bias=False)
        (1): BatchNorm2d(64, eps=1e-05, momentum=0.1, affine=True)
      )
    )
    (1): BasicBlock(
      (conv1): Conv2d (64, 64, kernel_size=(3, 3), stride=(1, 1), padding=(1, 1), bias=False)
      (bn1): BatchNorm2d(64, eps=1e-05, momentum=0.1, affine=True)
      (relu): ReLU(inplace)
      (conv2): Conv2d (64, 64, kernel_size=(3, 3), stride=(1, 1), padding=(1, 1), bias=False)
      (bn2): BatchNorm2d(64, eps=1e-05, momentum=0.1, affine=True)
      (downsample): Sequential(
        (0): Conv2d (64, 64, kernel_size=(1, 1), stride=(1, 1), bias=False)
        (1): BatchNorm2d(64, eps=1e-05, momentum=0.1, affine=True)
      )
    )
    (2): BasicBlock(
      (conv1): Conv2d (64, 64, kernel_size=(3, 3), stride=(1, 1), padding=(1, 1), bias=False)
      (bn1): BatchNorm2d(64, eps=1e-05, momentum=0.1, affine=True)
      (relu): ReLU(inplace)
      (conv2): Conv2d (64, 64, kernel_size=(3, 3), stride=(1, 1), padding=(1, 1), bias=False)
      (bn2): BatchNorm2d(64, eps=1e-05, momentum=0.1, affine=True)
      (downsample): Sequential(
        (0): Conv2d (64, 64, kernel_size=(1, 1), stride=(1, 1), bias=False)
        (1): BatchNorm2d(64, eps=1e-05, momentum=0.1, affine=True)
      )
    )
  )
  (avgpool): AdaptiveAvgPool2d(output_size=1)
  (fc): Linear(in_features=64, out_features=10)
)
2018-02-23 14:06:07 INFO: train | epoch 27 | loss: 0.2432 | accuracy: 0.9150 | lr: 0.010000 | using time: 67.094
2018-02-23 14:06:07 INFO: last average accuracy is 0.8729
2018-02-23 14:06:10 INFO: test | loss: 0.4397 | accuracy: 0.8576 | lr: 0.010000 | using time: 2.935
2018-02-23 14:06:27 INFO: train | epoch 78 | loss: 0.1488 | accuracy: 0.9489 | lr: 0.001000 | using time: 61.310
…
2018-02-23 14:57:54 INFO: train | epoch 122 | loss: 0.1388 | accuracy: 0.9529 | lr: 0.000001 | using time: 71.559
2018-02-23 14:57:54 INFO: last average accuracy is 0.9533
2018-02-23 14:57:57 INFO: test | loss: 0.5349 | accuracy: 0.8440 | lr: 0.000001 | using time: 2.830
2018-02-23 14:58:02 INFO: Load CIFAR10 train data OK. data size is (50000, 32, 32, 3)
2018-02-23 14:58:02 INFO: Load CIFAR10 test data OK. data size is (10000, 32, 32, 3)
2018-02-23 14:58:02 INFO: model name:resnet32
2018-02-23 14:58:02 INFO: model architecture:
ResNet(
  (conv1): Conv2d (3, 16, kernel_size=(3, 3), stride=(1, 1), padding=(1, 1), bias=False)
  (bn1): BatchNorm2d(16, eps=1e-05, momentum=0.1, affine=True)
  (relu): ReLU(inplace)
  (layer1): Sequential(
    (0): BasicBlock(
      (conv1): Conv2d (16, 16, kernel_size=(3, 3), stride=(1, 1), padding=(1, 1), bias=False)
      (bn1): BatchNorm2d(16, eps=1e-05, momentum=0.1, affine=True)
      (relu): ReLU(inplace)
      (conv2): Conv2d (16, 16, kernel_size=(3, 3), stride=(1, 1), padding=(1, 1), bias=False)
      (bn2): BatchNorm2d(16, eps=1e-05, momentum=0.1, affine=True)
      (downsample): Sequential(
        (0): Conv2d (16, 16, kernel_size=(1, 1), stride=(1, 1), bias=False)
        (1): BatchNorm2d(16, eps=1e-05, momentum=0.1, affine=True)
      )
    )
    (1): BasicBlock(
      (conv1): Conv2d (16, 16, kernel_size=(3, 3), stride=(1, 1), padding=(1, 1), bias=False)
      (bn1): BatchNorm2d(16, eps=1e-05, momentum=0.1, affine=True)
      (relu): ReLU(inplace)
      (conv2): Conv2d (16, 16, kernel_size=(3, 3), stride=(1, 1), padding=(1, 1), bias=False)
      (bn2): BatchNorm2d(16, eps=1e-05, momentum=0.1, affine=True)
      (downsample): Sequential(
        (0): Conv2d (16, 16, kernel_size=(1, 1), stride=(1, 1), bias=False)
        (1): BatchNorm2d(16, eps=1e-05, momentum=0.1, affine=True)
      )
    )
    (2): BasicBlock(
      (conv1): Conv2d (16, 16, kernel_size=(3, 3), stride=(1, 1), padding=(1, 1), bias=False)
      (bn1): BatchNorm2d(16, eps=1e-05, momentum=0.1, affine=True)
      (relu): ReLU(inplace)
      (conv2): Conv2d (16, 16, kernel_size=(3, 3), stride=(1, 1), padding=(1, 1), bias=False)
      (bn2): BatchNorm2d(16, eps=1e-05, momentum=0.1, affine=True)
      (downsample): Sequential(
        (0): Conv2d (16, 16, kernel_size=(1, 1), stride=(1, 1), bias=False)
        (1): BatchNorm2d(16, eps=1e-05, momentum=0.1, affine=True)
      )
    )
    (3): BasicBlock(
      (conv1): Conv2d (16, 16, kernel_size=(3, 3), stride=(1, 1), padding=(1, 1), bias=False)
      (bn1): BatchNorm2d(16, eps=1e-05, momentum=0.1, affine=True)
      (relu): ReLU(inplace)
      (conv2): Conv2d (16, 16, kernel_size=(3, 3), stride=(1, 1), padding=(1, 1), bias=False)
      (bn2): BatchNorm2d(16, eps=1e-05, momentum=0.1, affine=True)
      (downsample): Sequential(
        (0): Conv2d (16, 16, kernel_size=(1, 1), stride=(1, 1), bias=False)
        (1): BatchNorm2d(16, eps=1e-05, momentum=0.1, affine=True)
      )
    )
    (4): BasicBlock(
      (conv1): Conv2d (16, 16, kernel_size=(3, 3), stride=(1, 1), padding=(1, 1), bias=False)
      (bn1): BatchNorm2d(16, eps=1e-05, momentum=0.1, affine=True)
      (relu): ReLU(inplace)
      (conv2): Conv2d (16, 16, kernel_size=(3, 3), stride=(1, 1), padding=(1, 1), bias=False)
      (bn2): BatchNorm2d(16, eps=1e-05, momentum=0.1, affine=True)
      (downsample): Sequential(
        (0): Conv2d (16, 16, kernel_size=(1, 1), stride=(1, 1), bias=False)
        (1): BatchNorm2d(16, eps=1e-05, momentum=0.1, affine=True)
      )
    )
  )
  (layer2): Sequential(
    (0): BasicBlock(
      (conv1): Conv2d (16, 32, kernel_size=(3, 3), stride=(2, 2), padding=(1, 1), bias=False)
      (bn1): BatchNorm2d(32, eps=1e-05, momentum=0.1, affine=True)
      (relu): ReLU(inplace)
      (conv2): Conv2d (32, 32, kernel_size=(3, 3), stride=(1, 1), padding=(1, 1), bias=False)
      (bn2): BatchNorm2d(32, eps=1e-05, momentum=0.1, affine=True)
      (downsample): Sequential(
        (0): Conv2d (16, 32, kernel_size=(1, 1), stride=(2, 2), bias=False)
        (1): BatchNorm2d(32, eps=1e-05, momentum=0.1, affine=True)
      )
    )
    (1): BasicBlock(
      (conv1): Conv2d (32, 32, kernel_size=(3, 3), stride=(1, 1), padding=(1, 1), bias=False)
      (bn1): BatchNorm2d(32, eps=1e-05, momentum=0.1, affine=True)
      (relu): ReLU(inplace)
      (conv2): Conv2d (32, 32, kernel_size=(3, 3), stride=(1, 1), padding=(1, 1), bias=False)
      (bn2): BatchNorm2d(32, eps=1e-05, momentum=0.1, affine=True)
      (downsample): Sequential(
        (0): Conv2d (32, 32, kernel_size=(1, 1), stride=(1, 1), bias=False)
        (1): BatchNorm2d(32, eps=1e-05, momentum=0.1, affine=True)
      )
    )
    (2): BasicBlock(
      (conv1): Conv2d (32, 32, kernel_size=(3, 3), stride=(1, 1), padding=(1, 1), bias=False)
      (bn1): BatchNorm2d(32, eps=1e-05, momentum=0.1, affine=True)
      (relu): ReLU(inplace)
      (conv2): Conv2d (32, 32, kernel_size=(3, 3), stride=(1, 1), padding=(1, 1), bias=False)
      (bn2): BatchNorm2d(32, eps=1e-05, momentum=0.1, affine=True)
      (downsample): Sequential(
        (0): Conv2d (32, 32, kernel_size=(1, 1), stride=(1, 1), bias=False)
        (1): BatchNorm2d(32, eps=1e-05, momentum=0.1, affine=True)
      )
    )
    (3): BasicBlock(
      (conv1): Conv2d (32, 32, kernel_size=(3, 3), stride=(1, 1), padding=(1, 1), bias=False)
      (bn1): BatchNorm2d(32, eps=1e-05, momentum=0.1, affine=True)
      (relu): ReLU(inplace)
      (conv2): Conv2d (32, 32, kernel_size=(3, 3), stride=(1, 1), padding=(1, 1), bias=False)
      (bn2): BatchNorm2d(32, eps=1e-05, momentum=0.1, affine=True)
      (downsample): Sequential(
        (0): Conv2d (32, 32, kernel_size=(1, 1), stride=(1, 1), bias=False)
        (1): BatchNorm2d(32, eps=1e-05, momentum=0.1, affine=True)
      )
    )
    (4): BasicBlock(
      (conv1): Conv2d (32, 32, kernel_size=(3, 3), stride=(1, 1), padding=(1, 1), bias=False)
      (bn1): BatchNorm2d(32, eps=1e-05, momentum=0.1, affine=True)
      (relu): ReLU(inplace)
      (conv2): Conv2d (32, 32, kernel_size=(3, 3), stride=(1, 1), padding=(1, 1), bias=False)
      (bn2): BatchNorm2d(32, eps=1e-05, momentum=0.1, affine=True)
      (downsample): Sequential(
        (0): Conv2d (32, 32, kernel_size=(1, 1), stride=(1, 1), bias=False)
        (1): BatchNorm2d(32, eps=1e-05, momentum=0.1, affine=True)
      )
    )
  )
  (layer3): Sequential(
    (0): BasicBlock(
      (conv1): Conv2d (32, 64, kernel_size=(3, 3), stride=(2, 2), padding=(1, 1), bias=False)
      (bn1): BatchNorm2d(64, eps=1e-05, momentum=0.1, affine=True)
      (relu): ReLU(inplace)
      (conv2): Conv2d (64, 64, kernel_size=(3, 3), stride=(1, 1), padding=(1, 1), bias=False)
      (bn2): BatchNorm2d(64, eps=1e-05, momentum=0.1, affine=True)
      (downsample): Sequential(
        (0): Conv2d (32, 64, kernel_size=(1, 1), stride=(2, 2), bias=False)
        (1): BatchNorm2d(64, eps=1e-05, momentum=0.1, affine=True)
      )
    )
    (1): BasicBlock(
      (conv1): Conv2d (64, 64, kernel_size=(3, 3), stride=(1, 1), padding=(1, 1), bias=False)
      (bn1): BatchNorm2d(64, eps=1e-05, momentum=0.1, affine=True)
      (relu): ReLU(inplace)
      (conv2): Conv2d (64, 64, kernel_size=(3, 3), stride=(1, 1), padding=(1, 1), bias=False)
      (bn2): BatchNorm2d(64, eps=1e-05, momentum=0.1, affine=True)
      (downsample): Sequential(
        (0): Conv2d (64, 64, kernel_size=(1, 1), stride=(1, 1), bias=False)
        (1): BatchNorm2d(64, eps=1e-05, momentum=0.1, affine=True)
      )
    )
    (2): BasicBlock(
      (conv1): Conv2d (64, 64, kernel_size=(3, 3), stride=(1, 1), padding=(1, 1), bias=False)
      (bn1): BatchNorm2d(64, eps=1e-05, momentum=0.1, affine=True)
      (relu): ReLU(inplace)
      (conv2): Conv2d (64, 64, kernel_size=(3, 3), stride=(1, 1), padding=(1, 1), bias=False)
      (bn2): BatchNorm2d(64, eps=1e-05, momentum=0.1, affine=True)
      (downsample): Sequential(
        (0): Conv2d (64, 64, kernel_size=(1, 1), stride=(1, 1), bias=False)
        (1): BatchNorm2d(64, eps=1e-05, momentum=0.1, affine=True)
      )
    )
    (3): BasicBlock(
      (conv1): Conv2d (64, 64, kernel_size=(3, 3), stride=(1, 1), padding=(1, 1), bias=False)
      (bn1): BatchNorm2d(64, eps=1e-05, momentum=0.1, affine=True)
      (relu): ReLU(inplace)
      (conv2): Conv2d (64, 64, kernel_size=(3, 3), stride=(1, 1), padding=(1, 1), bias=False)
      (bn2): BatchNorm2d(64, eps=1e-05, momentum=0.1, affine=True)
      (downsample): Sequential(
        (0): Conv2d (64, 64, kernel_size=(1, 1), stride=(1, 1), bias=False)
        (1): BatchNorm2d(64, eps=1e-05, momentum=0.1, affine=True)
      )
    )
    (4): BasicBlock(
      (conv1): Conv2d (64, 64, kernel_size=(3, 3), stride=(1, 1), padding=(1, 1), bias=False)
      (bn1): BatchNorm2d(64, eps=1e-05, momentum=0.1, affine=True)
      (relu): ReLU(inplace)
      (conv2): Conv2d (64, 64, kernel_size=(3, 3), stride=(1, 1), padding=(1, 1), bias=False)
      (bn2): BatchNorm2d(64, eps=1e-05, momentum=0.1, affine=True)
      (downsample): Sequential(
        (0): Conv2d (64, 64, kernel_size=(1, 1), stride=(1, 1), bias=False)
        (1): BatchNorm2d(64, eps=1e-05, momentum=0.1, affine=True)
      )
    )
  )
  (avgpool): AdaptiveAvgPool2d(output_size=1)
  (fc): Linear(in_features=64, out_features=10)
)
2018-02-23 14:58:10 INFO: train | epoch 37 | loss: 0.1760 | accuracy: 0.9406 | lr: 0.010000 | using time: 63.504
2018-02-23 14:58:10 INFO: last average accuracy is 0.8982
2018-02-23 14:58:14 INFO: test | loss: 0.3052 | accuracy: 0.8976 | lr: 0.010000 | using time: 3.337
2018-02-23 14:58:26 INFO: train | epoch 54 | loss: 0.3373 | accuracy: 0.8829 | lr: 0.010000 | using time: 61.377
…
2018-02-23 15:08:10 INFO: last average accuracy is 0.8733
2018-02-23 15:08:12 INFO: Load CIFAR10 train data OK. data size is (50000, 32, 32, 3)
2018-02-23 15:08:12 INFO: Load CIFAR10 test data OK. data size is (10000, 32, 32, 3)
2018-02-23 15:08:12 INFO: train | epoch 63 | loss: 0.3074 | accuracy: 0.8916 | lr: 0.001000 | using time: 60.968
2018-02-23 15:08:12 INFO: last average accuracy is 0.8855
2018-02-23 15:08:12 INFO: model name:preact_resnet20
2018-02-23 15:08:12 INFO: model architecture:
ResNet(
  (conv1): Conv2d (3, 16, kernel_size=(3, 3), stride=(1, 1), padding=(1, 1), bias=False)
  (bn1): BatchNorm2d(16, eps=1e-05, momentum=0.1, affine=True)
  (relu): ReLU(inplace)
  (layer1): Sequential(
    (0): PreActBasicBlock(
      (conv1): Conv2d (16, 16, kernel_size=(3, 3), stride=(1, 1), padding=(1, 1), bias=False)
      (bn1): BatchNorm2d(16, eps=1e-05, momentum=0.1, affine=True)
      (relu): ReLU(inplace)
      (conv2): Conv2d (16, 16, kernel_size=(3, 3), stride=(1, 1), padding=(1, 1), bias=False)
      (bn2): BatchNorm2d(16, eps=1e-05, momentum=0.1, affine=True)
      (downsample): Sequential(
        (0): Conv2d (16, 16, kernel_size=(1, 1), stride=(1, 1), bias=False)
        (1): BatchNorm2d(16, eps=1e-05, momentum=0.1, affine=True)
      )
    )
    (1): PreActBasicBlock(
      (conv1): Conv2d (16, 16, kernel_size=(3, 3), stride=(1, 1), padding=(1, 1), bias=False)
      (bn1): BatchNorm2d(16, eps=1e-05, momentum=0.1, affine=True)
      (relu): ReLU(inplace)
      (conv2): Conv2d (16, 16, kernel_size=(3, 3), stride=(1, 1), padding=(1, 1), bias=False)
      (bn2): BatchNorm2d(16, eps=1e-05, momentum=0.1, affine=True)
      (downsample): Sequential(
        (0): Conv2d (16, 16, kernel_size=(1, 1), stride=(1, 1), bias=False)
        (1): BatchNorm2d(16, eps=1e-05, momentum=0.1, affine=True)
      )
    )
    (2): PreActBasicBlock(
      (conv1): Conv2d (16, 16, kernel_size=(3, 3), stride=(1, 1), padding=(1, 1), bias=False)
      (bn1): BatchNorm2d(16, eps=1e-05, momentum=0.1, affine=True)
      (relu): ReLU(inplace)
      (conv2): Conv2d (16, 16, kernel_size=(3, 3), stride=(1, 1), padding=(1, 1), bias=False)
      (bn2): BatchNorm2d(16, eps=1e-05, momentum=0.1, affine=True)
      (downsample): Sequential(
        (0): Conv2d (16, 16, kernel_size=(1, 1), stride=(1, 1), bias=False)
        (1): BatchNorm2d(16, eps=1e-05, momentum=0.1, affine=True)
      )
    )
  )
  (layer2): Sequential(
    (0): PreActBasicBlock(
      (conv1): Conv2d (16, 32, kernel_size=(3, 3), stride=(2, 2), padding=(1, 1), bias=False)
      (bn1): BatchNorm2d(16, eps=1e-05, momentum=0.1, affine=True)
      (relu): ReLU(inplace)
      (conv2): Conv2d (32, 32, kernel_size=(3, 3), stride=(1, 1), padding=(1, 1), bias=False)
      (bn2): BatchNorm2d(32, eps=1e-05, momentum=0.1, affine=True)
      (downsample): Sequential(
        (0): Conv2d (16, 32, kernel_size=(1, 1), stride=(2, 2), bias=False)
        (1): BatchNorm2d(32, eps=1e-05, momentum=0.1, affine=True)
      )
    )
    (1): PreActBasicBlock(
      (conv1): Conv2d (32, 32, kernel_size=(3, 3), stride=(1, 1), padding=(1, 1), bias=False)
      (bn1): BatchNorm2d(32, eps=1e-05, momentum=0.1, affine=True)
      (relu): ReLU(inplace)
      (conv2): Conv2d (32, 32, kernel_size=(3, 3), stride=(1, 1), padding=(1, 1), bias=False)
      (bn2): BatchNorm2d(32, eps=1e-05, momentum=0.1, affine=True)
      (downsample): Sequential(
        (0): Conv2d (32, 32, kernel_size=(1, 1), stride=(1, 1), bias=False)
        (1): BatchNorm2d(32, eps=1e-05, momentum=0.1, affine=True)
      )
    )
    (2): PreActBasicBlock(
      (conv1): Conv2d (32, 32, kernel_size=(3, 3), stride=(1, 1), padding=(1, 1), bias=False)
      (bn1): BatchNorm2d(32, eps=1e-05, momentum=0.1, affine=True)
      (relu): ReLU(inplace)
      (conv2): Conv2d (32, 32, kernel_size=(3, 3), stride=(1, 1), padding=(1, 1), bias=False)
      (bn2): BatchNorm2d(32, eps=1e-05, momentum=0.1, affine=True)
      (downsample): Sequential(
        (0): Conv2d (32, 32, kernel_size=(1, 1), stride=(1, 1), bias=False)
        (1): BatchNorm2d(32, eps=1e-05, momentum=0.1, affine=True)
      )
    )
  )
  (layer3): Sequential(
    (0): PreActBasicBlock(
      (conv1): Conv2d (32, 64, kernel_size=(3, 3), stride=(2, 2), padding=(1, 1), bias=False)
      (bn1): BatchNorm2d(32, eps=1e-05, momentum=0.1, affine=True)
      (relu): ReLU(inplace)
      (conv2): Conv2d (64, 64, kernel_size=(3, 3), stride=(1, 1), padding=(1, 1), bias=False)
      (bn2): BatchNorm2d(64, eps=1e-05, momentum=0.1, affine=True)
      (downsample): Sequential(
        (0): Conv2d (32, 64, kernel_size=(1, 1), stride=(2, 2), bias=False)
        (1): BatchNorm2d(64, eps=1e-05, momentum=0.1, affine=True)
      )
    )
    (1): PreActBasicBlock(
      (conv1): Conv2d (64, 64, kernel_size=(3, 3), stride=(1, 1), padding=(1, 1), bias=False)
      (bn1): BatchNorm2d(64, eps=1e-05, momentum=0.1, affine=True)
      (relu): ReLU(inplace)
      (conv2): Conv2d (64, 64, kernel_size=(3, 3), stride=(1, 1), padding=(1, 1), bias=False)
      (bn2): BatchNorm2d(64, eps=1e-05, momentum=0.1, affine=True)
      (downsample): Sequential(
        (0): Conv2d (64, 64, kernel_size=(1, 1), stride=(1, 1), bias=False)
        (1): BatchNorm2d(64, eps=1e-05, momentum=0.1, affine=True)
      )
    )
    (2): PreActBasicBlock(
      (conv1): Conv2d (64, 64, kernel_size=(3, 3), stride=(1, 1), padding=(1, 1), bias=False)
      (bn1): BatchNorm2d(64, eps=1e-05, momentum=0.1, affine=True)
      (relu): ReLU(inplace)
      (conv2): Conv2d (64, 64, kernel_size=(3, 3), stride=(1, 1), padding=(1, 1), bias=False)
      (bn2): BatchNorm2d(64, eps=1e-05, momentum=0.1, affine=True)
      (downsample): Sequential(
        (0): Conv2d (64, 64, kernel_size=(1, 1), stride=(1, 1), bias=False)
        (1): BatchNorm2d(64, eps=1e-05, momentum=0.1, affine=True)
      )
    )
  )
  (avgpool): AdaptiveAvgPool2d(output_size=1)
  (fc): Linear(in_features=64, out_features=10)
)
2018-02-23 15:08:13 INFO: test | loss: 0.4625 | accuracy: 0.8367 | lr: 0.000010 | using time: 3.008
2018-02-23 15:08:15 INFO: test | loss: 0.4384 | accuracy: 0.8483 | lr: 0.001000 | using time: 2.938
2018-02-23 15:08:15 INFO: Save model training parameters to cifar10-mobile_net5.pkl
2018-02-23 15:08:23 INFO: train | epoch 46 | loss: 0.1197 | accuracy: 0.9599 | lr: 0.010000 | using time: 63.243
…
2018-02-23 15:30:16 INFO: last average accuracy is 0.8733
2018-02-23 15:30:17 INFO: test | loss: 0.3678 | accuracy: 0.8950 | lr: 0.010000 | using time: 3.978
2018-02-23 15:30:19 INFO: test | loss: 0.4677 | accuracy: 0.8368 | lr: 0.000001 | using time: 3.477
2018-02-23 15:30:23 INFO: Load CIFAR10 train data OK. data size is (50000, 32, 32, 3)
2018-02-23 15:30:23 INFO: Load CIFAR10 test data OK. data size is (10000, 32, 32, 3)
2018-02-23 15:30:23 INFO: model name:preact_resnet32
2018-02-23 15:30:23 INFO: model architecture:
ResNet(
  (conv1): Conv2d (3, 16, kernel_size=(3, 3), stride=(1, 1), padding=(1, 1), bias=False)
  (bn1): BatchNorm2d(16, eps=1e-05, momentum=0.1, affine=True)
  (relu): ReLU(inplace)
  (layer1): Sequential(
    (0): PreActBasicBlock(
      (conv1): Conv2d (16, 16, kernel_size=(3, 3), stride=(1, 1), padding=(1, 1), bias=False)
      (bn1): BatchNorm2d(16, eps=1e-05, momentum=0.1, affine=True)
      (relu): ReLU(inplace)
      (conv2): Conv2d (16, 16, kernel_size=(3, 3), stride=(1, 1), padding=(1, 1), bias=False)
      (bn2): BatchNorm2d(16, eps=1e-05, momentum=0.1, affine=True)
      (downsample): Sequential(
        (0): Conv2d (16, 16, kernel_size=(1, 1), stride=(1, 1), bias=False)
        (1): BatchNorm2d(16, eps=1e-05, momentum=0.1, affine=True)
      )
    )
    (1): PreActBasicBlock(
      (conv1): Conv2d (16, 16, kernel_size=(3, 3), stride=(1, 1), padding=(1, 1), bias=False)
      (bn1): BatchNorm2d(16, eps=1e-05, momentum=0.1, affine=True)
      (relu): ReLU(inplace)
      (conv2): Conv2d (16, 16, kernel_size=(3, 3), stride=(1, 1), padding=(1, 1), bias=False)
      (bn2): BatchNorm2d(16, eps=1e-05, momentum=0.1, affine=True)
      (downsample): Sequential(
        (0): Conv2d (16, 16, kernel_size=(1, 1), stride=(1, 1), bias=False)
        (1): BatchNorm2d(16, eps=1e-05, momentum=0.1, affine=True)
      )
    )
    (2): PreActBasicBlock(
      (conv1): Conv2d (16, 16, kernel_size=(3, 3), stride=(1, 1), padding=(1, 1), bias=False)
      (bn1): BatchNorm2d(16, eps=1e-05, momentum=0.1, affine=True)
      (relu): ReLU(inplace)
      (conv2): Conv2d (16, 16, kernel_size=(3, 3), stride=(1, 1), padding=(1, 1), bias=False)
      (bn2): BatchNorm2d(16, eps=1e-05, momentum=0.1, affine=True)
      (downsample): Sequential(
        (0): Conv2d (16, 16, kernel_size=(1, 1), stride=(1, 1), bias=False)
        (1): BatchNorm2d(16, eps=1e-05, momentum=0.1, affine=True)
      )
    )
    (3): PreActBasicBlock(
      (conv1): Conv2d (16, 16, kernel_size=(3, 3), stride=(1, 1), padding=(1, 1), bias=False)
      (bn1): BatchNorm2d(16, eps=1e-05, momentum=0.1, affine=True)
      (relu): ReLU(inplace)
      (conv2): Conv2d (16, 16, kernel_size=(3, 3), stride=(1, 1), padding=(1, 1), bias=False)
      (bn2): BatchNorm2d(16, eps=1e-05, momentum=0.1, affine=True)
      (downsample): Sequential(
        (0): Conv2d (16, 16, kernel_size=(1, 1), stride=(1, 1), bias=False)
        (1): BatchNorm2d(16, eps=1e-05, momentum=0.1, affine=True)
      )
    )
    (4): PreActBasicBlock(
      (conv1): Conv2d (16, 16, kernel_size=(3, 3), stride=(1, 1), padding=(1, 1), bias=False)
      (bn1): BatchNorm2d(16, eps=1e-05, momentum=0.1, affine=True)
      (relu): ReLU(inplace)
      (conv2): Conv2d (16, 16, kernel_size=(3, 3), stride=(1, 1), padding=(1, 1), bias=False)
      (bn2): BatchNorm2d(16, eps=1e-05, momentum=0.1, affine=True)
      (downsample): Sequential(
        (0): Conv2d (16, 16, kernel_size=(1, 1), stride=(1, 1), bias=False)
        (1): BatchNorm2d(16, eps=1e-05, momentum=0.1, affine=True)
      )
    )
  )
  (layer2): Sequential(
    (0): PreActBasicBlock(
      (conv1): Conv2d (16, 32, kernel_size=(3, 3), stride=(2, 2), padding=(1, 1), bias=False)
      (bn1): BatchNorm2d(16, eps=1e-05, momentum=0.1, affine=True)
      (relu): ReLU(inplace)
      (conv2): Conv2d (32, 32, kernel_size=(3, 3), stride=(1, 1), padding=(1, 1), bias=False)
      (bn2): BatchNorm2d(32, eps=1e-05, momentum=0.1, affine=True)
      (downsample): Sequential(
        (0): Conv2d (16, 32, kernel_size=(1, 1), stride=(2, 2), bias=False)
        (1): BatchNorm2d(32, eps=1e-05, momentum=0.1, affine=True)
      )
    )
    (1): PreActBasicBlock(
      (conv1): Conv2d (32, 32, kernel_size=(3, 3), stride=(1, 1), padding=(1, 1), bias=False)
      (bn1): BatchNorm2d(32, eps=1e-05, momentum=0.1, affine=True)
      (relu): ReLU(inplace)
      (conv2): Conv2d (32, 32, kernel_size=(3, 3), stride=(1, 1), padding=(1, 1), bias=False)
      (bn2): BatchNorm2d(32, eps=1e-05, momentum=0.1, affine=True)
      (downsample): Sequential(
        (0): Conv2d (32, 32, kernel_size=(1, 1), stride=(1, 1), bias=False)
        (1): BatchNorm2d(32, eps=1e-05, momentum=0.1, affine=True)
      )
    )
    (2): PreActBasicBlock(
      (conv1): Conv2d (32, 32, kernel_size=(3, 3), stride=(1, 1), padding=(1, 1), bias=False)
      (bn1): BatchNorm2d(32, eps=1e-05, momentum=0.1, affine=True)
      (relu): ReLU(inplace)
      (conv2): Conv2d (32, 32, kernel_size=(3, 3), stride=(1, 1), padding=(1, 1), bias=False)
      (bn2): BatchNorm2d(32, eps=1e-05, momentum=0.1, affine=True)
      (downsample): Sequential(
        (0): Conv2d (32, 32, kernel_size=(1, 1), stride=(1, 1), bias=False)
        (1): BatchNorm2d(32, eps=1e-05, momentum=0.1, affine=True)
      )
    )
    (3): PreActBasicBlock(
      (conv1): Conv2d (32, 32, kernel_size=(3, 3), stride=(1, 1), padding=(1, 1), bias=False)
      (bn1): BatchNorm2d(32, eps=1e-05, momentum=0.1, affine=True)
      (relu): ReLU(inplace)
      (conv2): Conv2d (32, 32, kernel_size=(3, 3), stride=(1, 1), padding=(1, 1), bias=False)
      (bn2): BatchNorm2d(32, eps=1e-05, momentum=0.1, affine=True)
      (downsample): Sequential(
        (0): Conv2d (32, 32, kernel_size=(1, 1), stride=(1, 1), bias=False)
        (1): BatchNorm2d(32, eps=1e-05, momentum=0.1, affine=True)
      )
    )
    (4): PreActBasicBlock(
      (conv1): Conv2d (32, 32, kernel_size=(3, 3), stride=(1, 1), padding=(1, 1), bias=False)
      (bn1): BatchNorm2d(32, eps=1e-05, momentum=0.1, affine=True)
      (relu): ReLU(inplace)
      (conv2): Conv2d (32, 32, kernel_size=(3, 3), stride=(1, 1), padding=(1, 1), bias=False)
      (bn2): BatchNorm2d(32, eps=1e-05, momentum=0.1, affine=True)
      (downsample): Sequential(
        (0): Conv2d (32, 32, kernel_size=(1, 1), stride=(1, 1), bias=False)
        (1): BatchNorm2d(32, eps=1e-05, momentum=0.1, affine=True)
      )
    )
  )
  (layer3): Sequential(
    (0): PreActBasicBlock(
      (conv1): Conv2d (32, 64, kernel_size=(3, 3), stride=(2, 2), padding=(1, 1), bias=False)
      (bn1): BatchNorm2d(32, eps=1e-05, momentum=0.1, affine=True)
      (relu): ReLU(inplace)
      (conv2): Conv2d (64, 64, kernel_size=(3, 3), stride=(1, 1), padding=(1, 1), bias=False)
      (bn2): BatchNorm2d(64, eps=1e-05, momentum=0.1, affine=True)
      (downsample): Sequential(
        (0): Conv2d (32, 64, kernel_size=(1, 1), stride=(2, 2), bias=False)
        (1): BatchNorm2d(64, eps=1e-05, momentum=0.1, affine=True)
      )
    )
    (1): PreActBasicBlock(
      (conv1): Conv2d (64, 64, kernel_size=(3, 3), stride=(1, 1), padding=(1, 1), bias=False)
      (bn1): BatchNorm2d(64, eps=1e-05, momentum=0.1, affine=True)
      (relu): ReLU(inplace)
      (conv2): Conv2d (64, 64, kernel_size=(3, 3), stride=(1, 1), padding=(1, 1), bias=False)
      (bn2): BatchNorm2d(64, eps=1e-05, momentum=0.1, affine=True)
      (downsample): Sequential(
        (0): Conv2d (64, 64, kernel_size=(1, 1), stride=(1, 1), bias=False)
        (1): BatchNorm2d(64, eps=1e-05, momentum=0.1, affine=True)
      )
    )
    (2): PreActBasicBlock(
      (conv1): Conv2d (64, 64, kernel_size=(3, 3), stride=(1, 1), padding=(1, 1), bias=False)
      (bn1): BatchNorm2d(64, eps=1e-05, momentum=0.1, affine=True)
      (relu): ReLU(inplace)
      (conv2): Conv2d (64, 64, kernel_size=(3, 3), stride=(1, 1), padding=(1, 1), bias=False)
      (bn2): BatchNorm2d(64, eps=1e-05, momentum=0.1, affine=True)
      (downsample): Sequential(
        (0): Conv2d (64, 64, kernel_size=(1, 1), stride=(1, 1), bias=False)
        (1): BatchNorm2d(64, eps=1e-05, momentum=0.1, affine=True)
      )
    )
    (3): PreActBasicBlock(
      (conv1): Conv2d (64, 64, kernel_size=(3, 3), stride=(1, 1), padding=(1, 1), bias=False)
      (bn1): BatchNorm2d(64, eps=1e-05, momentum=0.1, affine=True)
      (relu): ReLU(inplace)
      (conv2): Conv2d (64, 64, kernel_size=(3, 3), stride=(1, 1), padding=(1, 1), bias=False)
      (bn2): BatchNorm2d(64, eps=1e-05, momentum=0.1, affine=True)
      (downsample): Sequential(
        (0): Conv2d (64, 64, kernel_size=(1, 1), stride=(1, 1), bias=False)
        (1): BatchNorm2d(64, eps=1e-05, momentum=0.1, affine=True)
      )
    )
    (4): PreActBasicBlock(
      (conv1): Conv2d (64, 64, kernel_size=(3, 3), stride=(1, 1), padding=(1, 1), bias=False)
      (bn1): BatchNorm2d(64, eps=1e-05, momentum=0.1, affine=True)
      (relu): ReLU(inplace)
      (conv2): Conv2d (64, 64, kernel_size=(3, 3), stride=(1, 1), padding=(1, 1), bias=False)
      (bn2): BatchNorm2d(64, eps=1e-05, momentum=0.1, affine=True)
      (downsample): Sequential(
        (0): Conv2d (64, 64, kernel_size=(1, 1), stride=(1, 1), bias=False)
        (1): BatchNorm2d(64, eps=1e-05, momentum=0.1, affine=True)
      )
    )
  )
  (avgpool): AdaptiveAvgPool2d(output_size=1)
  (fc): Linear(in_features=64, out_features=10)
)
2018-02-23 15:30:51 INFO: train | epoch 72 | loss: 0.0594 | accuracy: 0.9791 | lr: 0.001000 | using time: 184.754
2018-02-23 15:30:51 INFO: last average accuracy is 0.9720
2018-02-23 15:30:52 INFO: train | epoch 83 | loss: 0.2957 | accuracy: 0.8968 | lr: 0.000100 | using time: 63.897
2018-02-23 15:30:52 INFO: last average accuracy is 0.8971
2018-02-23 15:30:55 INFO: test | loss: 0.5876 | accuracy: 0.8654 | lr: 0.001000 | using time: 3.623
…
2018-02-23 16:07:53 INFO: test | loss: 0.4376 | accuracy: 0.8491 | lr: 0.000001 | using time: 3.714
2018-02-23 16:07:56 INFO: train | epoch 15 | loss: 0.3339 | accuracy: 0.8838 | lr: 0.100000 | using time: 98.618
2018-02-23 16:07:56 INFO: last average accuracy is 0.8822
2018-02-23 16:08:00 INFO: Load CIFAR10 train data OK. data size is (50000, 32, 32, 3)
2018-02-23 16:08:00 INFO: Load CIFAR10 test data OK. data size is (10000, 32, 32, 3)
2018-02-23 16:08:00 INFO: model name:se-resnet20
2018-02-23 16:08:00 INFO: model architecture:
CifarResNet(
  (conv1): Conv2d (3, 16, kernel_size=(3, 3), stride=(1, 1), padding=(1, 1), bias=False)
  (bn1): BatchNorm2d(16, eps=1e-05, momentum=0.1, affine=True)
  (relu): ReLU(inplace)
  (layer1): Sequential(
    (0): CifarSEBasicBlock(
      (conv1): Conv2d (16, 16, kernel_size=(3, 3), stride=(1, 1), padding=(1, 1), bias=False)
      (bn1): BatchNorm2d(16, eps=1e-05, momentum=0.1, affine=True)
      (relu): ReLU(inplace)
      (conv2): Conv2d (16, 16, kernel_size=(3, 3), stride=(1, 1), padding=(1, 1), bias=False)
      (bn2): BatchNorm2d(16, eps=1e-05, momentum=0.1, affine=True)
      (se): SELayer(
        (avg_pool): AdaptiveAvgPool2d(output_size=1)
        (fc): Sequential(
          (0): Linear(in_features=16, out_features=16)
          (1): ReLU(inplace)
          (2): Linear(in_features=16, out_features=16)
          (3): Sigmoid()
        )
      )
      (downsample): Sequential(
        (0): Conv2d (16, 16, kernel_size=(1, 1), stride=(1, 1), bias=False)
        (1): BatchNorm2d(16, eps=1e-05, momentum=0.1, affine=True)
      )
    )
    (1): CifarSEBasicBlock(
      (conv1): Conv2d (16, 16, kernel_size=(3, 3), stride=(1, 1), padding=(1, 1), bias=False)
      (bn1): BatchNorm2d(16, eps=1e-05, momentum=0.1, affine=True)
      (relu): ReLU(inplace)
      (conv2): Conv2d (16, 16, kernel_size=(3, 3), stride=(1, 1), padding=(1, 1), bias=False)
      (bn2): BatchNorm2d(16, eps=1e-05, momentum=0.1, affine=True)
      (se): SELayer(
        (avg_pool): AdaptiveAvgPool2d(output_size=1)
        (fc): Sequential(
          (0): Linear(in_features=16, out_features=16)
          (1): ReLU(inplace)
          (2): Linear(in_features=16, out_features=16)
          (3): Sigmoid()
        )
      )
      (downsample): Sequential(
        (0): Conv2d (16, 16, kernel_size=(1, 1), stride=(1, 1), bias=False)
        (1): BatchNorm2d(16, eps=1e-05, momentum=0.1, affine=True)
      )
    )
    (2): CifarSEBasicBlock(
      (conv1): Conv2d (16, 16, kernel_size=(3, 3), stride=(1, 1), padding=(1, 1), bias=False)
      (bn1): BatchNorm2d(16, eps=1e-05, momentum=0.1, affine=True)
      (relu): ReLU(inplace)
      (conv2): Conv2d (16, 16, kernel_size=(3, 3), stride=(1, 1), padding=(1, 1), bias=False)
      (bn2): BatchNorm2d(16, eps=1e-05, momentum=0.1, affine=True)
      (se): SELayer(
        (avg_pool): AdaptiveAvgPool2d(output_size=1)
        (fc): Sequential(
          (0): Linear(in_features=16, out_features=16)
          (1): ReLU(inplace)
          (2): Linear(in_features=16, out_features=16)
          (3): Sigmoid()
        )
      )
      (downsample): Sequential(
        (0): Conv2d (16, 16, kernel_size=(1, 1), stride=(1, 1), bias=False)
        (1): BatchNorm2d(16, eps=1e-05, momentum=0.1, affine=True)
      )
    )
  )
  (layer2): Sequential(
    (0): CifarSEBasicBlock(
      (conv1): Conv2d (16, 32, kernel_size=(3, 3), stride=(2, 2), padding=(1, 1), bias=False)
      (bn1): BatchNorm2d(32, eps=1e-05, momentum=0.1, affine=True)
      (relu): ReLU(inplace)
      (conv2): Conv2d (32, 32, kernel_size=(3, 3), stride=(1, 1), padding=(1, 1), bias=False)
      (bn2): BatchNorm2d(32, eps=1e-05, momentum=0.1, affine=True)
      (se): SELayer(
        (avg_pool): AdaptiveAvgPool2d(output_size=1)
        (fc): Sequential(
          (0): Linear(in_features=32, out_features=16)
          (1): ReLU(inplace)
          (2): Linear(in_features=16, out_features=32)
          (3): Sigmoid()
        )
      )
      (downsample): Sequential(
        (0): Conv2d (16, 32, kernel_size=(1, 1), stride=(2, 2), bias=False)
        (1): BatchNorm2d(32, eps=1e-05, momentum=0.1, affine=True)
      )
    )
    (1): CifarSEBasicBlock(
      (conv1): Conv2d (32, 32, kernel_size=(3, 3), stride=(1, 1), padding=(1, 1), bias=False)
      (bn1): BatchNorm2d(32, eps=1e-05, momentum=0.1, affine=True)
      (relu): ReLU(inplace)
      (conv2): Conv2d (32, 32, kernel_size=(3, 3), stride=(1, 1), padding=(1, 1), bias=False)
      (bn2): BatchNorm2d(32, eps=1e-05, momentum=0.1, affine=True)
      (se): SELayer(
        (avg_pool): AdaptiveAvgPool2d(output_size=1)
        (fc): Sequential(
          (0): Linear(in_features=32, out_features=16)
          (1): ReLU(inplace)
          (2): Linear(in_features=16, out_features=32)
          (3): Sigmoid()
        )
      )
      (downsample): Sequential(
        (0): Conv2d (32, 32, kernel_size=(1, 1), stride=(1, 1), bias=False)
        (1): BatchNorm2d(32, eps=1e-05, momentum=0.1, affine=True)
      )
    )
    (2): CifarSEBasicBlock(
      (conv1): Conv2d (32, 32, kernel_size=(3, 3), stride=(1, 1), padding=(1, 1), bias=False)
      (bn1): BatchNorm2d(32, eps=1e-05, momentum=0.1, affine=True)
      (relu): ReLU(inplace)
      (conv2): Conv2d (32, 32, kernel_size=(3, 3), stride=(1, 1), padding=(1, 1), bias=False)
      (bn2): BatchNorm2d(32, eps=1e-05, momentum=0.1, affine=True)
      (se): SELayer(
        (avg_pool): AdaptiveAvgPool2d(output_size=1)
        (fc): Sequential(
          (0): Linear(in_features=32, out_features=16)
          (1): ReLU(inplace)
          (2): Linear(in_features=16, out_features=32)
          (3): Sigmoid()
        )
      )
      (downsample): Sequential(
        (0): Conv2d (32, 32, kernel_size=(1, 1), stride=(1, 1), bias=False)
        (1): BatchNorm2d(32, eps=1e-05, momentum=0.1, affine=True)
      )
    )
  )
  (layer3): Sequential(
    (0): CifarSEBasicBlock(
      (conv1): Conv2d (32, 64, kernel_size=(3, 3), stride=(2, 2), padding=(1, 1), bias=False)
      (bn1): BatchNorm2d(64, eps=1e-05, momentum=0.1, affine=True)
      (relu): ReLU(inplace)
      (conv2): Conv2d (64, 64, kernel_size=(3, 3), stride=(1, 1), padding=(1, 1), bias=False)
      (bn2): BatchNorm2d(64, eps=1e-05, momentum=0.1, affine=True)
      (se): SELayer(
        (avg_pool): AdaptiveAvgPool2d(output_size=1)
        (fc): Sequential(
          (0): Linear(in_features=64, out_features=16)
          (1): ReLU(inplace)
          (2): Linear(in_features=16, out_features=64)
          (3): Sigmoid()
        )
      )
      (downsample): Sequential(
        (0): Conv2d (32, 64, kernel_size=(1, 1), stride=(2, 2), bias=False)
        (1): BatchNorm2d(64, eps=1e-05, momentum=0.1, affine=True)
      )
    )
    (1): CifarSEBasicBlock(
      (conv1): Conv2d (64, 64, kernel_size=(3, 3), stride=(1, 1), padding=(1, 1), bias=False)
      (bn1): BatchNorm2d(64, eps=1e-05, momentum=0.1, affine=True)
      (relu): ReLU(inplace)
      (conv2): Conv2d (64, 64, kernel_size=(3, 3), stride=(1, 1), padding=(1, 1), bias=False)
      (bn2): BatchNorm2d(64, eps=1e-05, momentum=0.1, affine=True)
      (se): SELayer(
        (avg_pool): AdaptiveAvgPool2d(output_size=1)
        (fc): Sequential(
          (0): Linear(in_features=64, out_features=16)
          (1): ReLU(inplace)
          (2): Linear(in_features=16, out_features=64)
          (3): Sigmoid()
        )
      )
      (downsample): Sequential(
        (0): Conv2d (64, 64, kernel_size=(1, 1), stride=(1, 1), bias=False)
        (1): BatchNorm2d(64, eps=1e-05, momentum=0.1, affine=True)
      )
    )
    (2): CifarSEBasicBlock(
      (conv1): Conv2d (64, 64, kernel_size=(3, 3), stride=(1, 1), padding=(1, 1), bias=False)
      (bn1): BatchNorm2d(64, eps=1e-05, momentum=0.1, affine=True)
      (relu): ReLU(inplace)
      (conv2): Conv2d (64, 64, kernel_size=(3, 3), stride=(1, 1), padding=(1, 1), bias=False)
      (bn2): BatchNorm2d(64, eps=1e-05, momentum=0.1, affine=True)
      (se): SELayer(
        (avg_pool): AdaptiveAvgPool2d(output_size=1)
        (fc): Sequential(
          (0): Linear(in_features=64, out_features=16)
          (1): ReLU(inplace)
          (2): Linear(in_features=16, out_features=64)
          (3): Sigmoid()
        )
      )
      (downsample): Sequential(
        (0): Conv2d (64, 64, kernel_size=(1, 1), stride=(1, 1), bias=False)
        (1): BatchNorm2d(64, eps=1e-05, momentum=0.1, affine=True)
      )
    )
  )
  (avgpool): AdaptiveAvgPool2d(output_size=1)
  (fc): Linear(in_features=64, out_features=10)
)
2018-02-23 16:08:00 INFO: test | loss: 0.5990 | accuracy: 0.8006 | lr: 0.100000 | using time: 4.176
2018-02-23 16:08:07 INFO: train | epoch 97 | loss: 0.2816 | accuracy: 0.9034 | lr: 0.000010 | using time: 84.442
2018-02-23 16:08:07 INFO: last average accuracy is 0.9023
2018-02-23 16:08:10 INFO: test | loss: 0.4422 | accuracy: 0.8540 | lr: 0.000010 | using time: 3.755
…
2018-02-23 16:34:48 INFO: train | epoch 116 | loss: 0.2805 | accuracy: 0.9023 | lr: 0.000001 | using time: 90.440
2018-02-23 16:34:48 INFO: last average accuracy is 0.9022
2018-02-23 16:34:53 INFO: test | loss: 0.4443 | accuracy: 0.8552 | lr: 0.000001 | using time: 4.252
2018-02-23 16:34:56 INFO: Load CIFAR10 train data OK. data size is (50000, 32, 32, 3)
2018-02-23 16:34:56 INFO: Load CIFAR10 test data OK. data size is (10000, 32, 32, 3)
2018-02-23 16:34:56 INFO: model name:se-resnet32
2018-02-23 16:34:56 INFO: model architecture:
CifarResNet(
  (conv1): Conv2d (3, 16, kernel_size=(3, 3), stride=(1, 1), padding=(1, 1), bias=False)
  (bn1): BatchNorm2d(16, eps=1e-05, momentum=0.1, affine=True)
  (relu): ReLU(inplace)
  (layer1): Sequential(
    (0): CifarSEBasicBlock(
      (conv1): Conv2d (16, 16, kernel_size=(3, 3), stride=(1, 1), padding=(1, 1), bias=False)
      (bn1): BatchNorm2d(16, eps=1e-05, momentum=0.1, affine=True)
      (relu): ReLU(inplace)
      (conv2): Conv2d (16, 16, kernel_size=(3, 3), stride=(1, 1), padding=(1, 1), bias=False)
      (bn2): BatchNorm2d(16, eps=1e-05, momentum=0.1, affine=True)
      (se): SELayer(
        (avg_pool): AdaptiveAvgPool2d(output_size=1)
        (fc): Sequential(
          (0): Linear(in_features=16, out_features=16)
          (1): ReLU(inplace)
          (2): Linear(in_features=16, out_features=16)
          (3): Sigmoid()
        )
      )
      (downsample): Sequential(
        (0): Conv2d (16, 16, kernel_size=(1, 1), stride=(1, 1), bias=False)
        (1): BatchNorm2d(16, eps=1e-05, momentum=0.1, affine=True)
      )
    )
    (1): CifarSEBasicBlock(
      (conv1): Conv2d (16, 16, kernel_size=(3, 3), stride=(1, 1), padding=(1, 1), bias=False)
      (bn1): BatchNorm2d(16, eps=1e-05, momentum=0.1, affine=True)
      (relu): ReLU(inplace)
      (conv2): Conv2d (16, 16, kernel_size=(3, 3), stride=(1, 1), padding=(1, 1), bias=False)
      (bn2): BatchNorm2d(16, eps=1e-05, momentum=0.1, affine=True)
      (se): SELayer(
        (avg_pool): AdaptiveAvgPool2d(output_size=1)
        (fc): Sequential(
          (0): Linear(in_features=16, out_features=16)
          (1): ReLU(inplace)
          (2): Linear(in_features=16, out_features=16)
          (3): Sigmoid()
        )
      )
      (downsample): Sequential(
        (0): Conv2d (16, 16, kernel_size=(1, 1), stride=(1, 1), bias=False)
        (1): BatchNorm2d(16, eps=1e-05, momentum=0.1, affine=True)
      )
    )
    (2): CifarSEBasicBlock(
      (conv1): Conv2d (16, 16, kernel_size=(3, 3), stride=(1, 1), padding=(1, 1), bias=False)
      (bn1): BatchNorm2d(16, eps=1e-05, momentum=0.1, affine=True)
      (relu): ReLU(inplace)
      (conv2): Conv2d (16, 16, kernel_size=(3, 3), stride=(1, 1), padding=(1, 1), bias=False)
      (bn2): BatchNorm2d(16, eps=1e-05, momentum=0.1, affine=True)
      (se): SELayer(
        (avg_pool): AdaptiveAvgPool2d(output_size=1)
        (fc): Sequential(
          (0): Linear(in_features=16, out_features=16)
          (1): ReLU(inplace)
          (2): Linear(in_features=16, out_features=16)
          (3): Sigmoid()
        )
      )
      (downsample): Sequential(
        (0): Conv2d (16, 16, kernel_size=(1, 1), stride=(1, 1), bias=False)
        (1): BatchNorm2d(16, eps=1e-05, momentum=0.1, affine=True)
      )
    )
    (3): CifarSEBasicBlock(
      (conv1): Conv2d (16, 16, kernel_size=(3, 3), stride=(1, 1), padding=(1, 1), bias=False)
      (bn1): BatchNorm2d(16, eps=1e-05, momentum=0.1, affine=True)
      (relu): ReLU(inplace)
      (conv2): Conv2d (16, 16, kernel_size=(3, 3), stride=(1, 1), padding=(1, 1), bias=False)
      (bn2): BatchNorm2d(16, eps=1e-05, momentum=0.1, affine=True)
      (se): SELayer(
        (avg_pool): AdaptiveAvgPool2d(output_size=1)
        (fc): Sequential(
          (0): Linear(in_features=16, out_features=16)
          (1): ReLU(inplace)
          (2): Linear(in_features=16, out_features=16)
          (3): Sigmoid()
        )
      )
      (downsample): Sequential(
        (0): Conv2d (16, 16, kernel_size=(1, 1), stride=(1, 1), bias=False)
        (1): BatchNorm2d(16, eps=1e-05, momentum=0.1, affine=True)
      )
    )
    (4): CifarSEBasicBlock(
      (conv1): Conv2d (16, 16, kernel_size=(3, 3), stride=(1, 1), padding=(1, 1), bias=False)
      (bn1): BatchNorm2d(16, eps=1e-05, momentum=0.1, affine=True)
      (relu): ReLU(inplace)
      (conv2): Conv2d (16, 16, kernel_size=(3, 3), stride=(1, 1), padding=(1, 1), bias=False)
      (bn2): BatchNorm2d(16, eps=1e-05, momentum=0.1, affine=True)
      (se): SELayer(
        (avg_pool): AdaptiveAvgPool2d(output_size=1)
        (fc): Sequential(
          (0): Linear(in_features=16, out_features=16)
          (1): ReLU(inplace)
          (2): Linear(in_features=16, out_features=16)
          (3): Sigmoid()
        )
      )
      (downsample): Sequential(
        (0): Conv2d (16, 16, kernel_size=(1, 1), stride=(1, 1), bias=False)
        (1): BatchNorm2d(16, eps=1e-05, momentum=0.1, affine=True)
      )
    )
  )
  (layer2): Sequential(
    (0): CifarSEBasicBlock(
      (conv1): Conv2d (16, 32, kernel_size=(3, 3), stride=(2, 2), padding=(1, 1), bias=False)
      (bn1): BatchNorm2d(32, eps=1e-05, momentum=0.1, affine=True)
      (relu): ReLU(inplace)
      (conv2): Conv2d (32, 32, kernel_size=(3, 3), stride=(1, 1), padding=(1, 1), bias=False)
      (bn2): BatchNorm2d(32, eps=1e-05, momentum=0.1, affine=True)
      (se): SELayer(
        (avg_pool): AdaptiveAvgPool2d(output_size=1)
        (fc): Sequential(
          (0): Linear(in_features=32, out_features=16)
          (1): ReLU(inplace)
          (2): Linear(in_features=16, out_features=32)
          (3): Sigmoid()
        )
      )
      (downsample): Sequential(
        (0): Conv2d (16, 32, kernel_size=(1, 1), stride=(2, 2), bias=False)
        (1): BatchNorm2d(32, eps=1e-05, momentum=0.1, affine=True)
      )
    )
    (1): CifarSEBasicBlock(
      (conv1): Conv2d (32, 32, kernel_size=(3, 3), stride=(1, 1), padding=(1, 1), bias=False)
      (bn1): BatchNorm2d(32, eps=1e-05, momentum=0.1, affine=True)
      (relu): ReLU(inplace)
      (conv2): Conv2d (32, 32, kernel_size=(3, 3), stride=(1, 1), padding=(1, 1), bias=False)
      (bn2): BatchNorm2d(32, eps=1e-05, momentum=0.1, affine=True)
      (se): SELayer(
        (avg_pool): AdaptiveAvgPool2d(output_size=1)
        (fc): Sequential(
          (0): Linear(in_features=32, out_features=16)
          (1): ReLU(inplace)
          (2): Linear(in_features=16, out_features=32)
          (3): Sigmoid()
        )
      )
      (downsample): Sequential(
        (0): Conv2d (32, 32, kernel_size=(1, 1), stride=(1, 1), bias=False)
        (1): BatchNorm2d(32, eps=1e-05, momentum=0.1, affine=True)
      )
    )
    (2): CifarSEBasicBlock(
      (conv1): Conv2d (32, 32, kernel_size=(3, 3), stride=(1, 1), padding=(1, 1), bias=False)
      (bn1): BatchNorm2d(32, eps=1e-05, momentum=0.1, affine=True)
      (relu): ReLU(inplace)
      (conv2): Conv2d (32, 32, kernel_size=(3, 3), stride=(1, 1), padding=(1, 1), bias=False)
      (bn2): BatchNorm2d(32, eps=1e-05, momentum=0.1, affine=True)
      (se): SELayer(
        (avg_pool): AdaptiveAvgPool2d(output_size=1)
        (fc): Sequential(
          (0): Linear(in_features=32, out_features=16)
          (1): ReLU(inplace)
          (2): Linear(in_features=16, out_features=32)
          (3): Sigmoid()
        )
      )
      (downsample): Sequential(
        (0): Conv2d (32, 32, kernel_size=(1, 1), stride=(1, 1), bias=False)
        (1): BatchNorm2d(32, eps=1e-05, momentum=0.1, affine=True)
      )
    )
    (3): CifarSEBasicBlock(
      (conv1): Conv2d (32, 32, kernel_size=(3, 3), stride=(1, 1), padding=(1, 1), bias=False)
      (bn1): BatchNorm2d(32, eps=1e-05, momentum=0.1, affine=True)
      (relu): ReLU(inplace)
      (conv2): Conv2d (32, 32, kernel_size=(3, 3), stride=(1, 1), padding=(1, 1), bias=False)
      (bn2): BatchNorm2d(32, eps=1e-05, momentum=0.1, affine=True)
      (se): SELayer(
        (avg_pool): AdaptiveAvgPool2d(output_size=1)
        (fc): Sequential(
          (0): Linear(in_features=32, out_features=16)
          (1): ReLU(inplace)
          (2): Linear(in_features=16, out_features=32)
          (3): Sigmoid()
        )
      )
      (downsample): Sequential(
        (0): Conv2d (32, 32, kernel_size=(1, 1), stride=(1, 1), bias=False)
        (1): BatchNorm2d(32, eps=1e-05, momentum=0.1, affine=True)
      )
    )
    (4): CifarSEBasicBlock(
      (conv1): Conv2d (32, 32, kernel_size=(3, 3), stride=(1, 1), padding=(1, 1), bias=False)
      (bn1): BatchNorm2d(32, eps=1e-05, momentum=0.1, affine=True)
      (relu): ReLU(inplace)
      (conv2): Conv2d (32, 32, kernel_size=(3, 3), stride=(1, 1), padding=(1, 1), bias=False)
      (bn2): BatchNorm2d(32, eps=1e-05, momentum=0.1, affine=True)
      (se): SELayer(
        (avg_pool): AdaptiveAvgPool2d(output_size=1)
        (fc): Sequential(
          (0): Linear(in_features=32, out_features=16)
          (1): ReLU(inplace)
          (2): Linear(in_features=16, out_features=32)
          (3): Sigmoid()
        )
      )
      (downsample): Sequential(
        (0): Conv2d (32, 32, kernel_size=(1, 1), stride=(1, 1), bias=False)
        (1): BatchNorm2d(32, eps=1e-05, momentum=0.1, affine=True)
      )
    )
  )
  (layer3): Sequential(
    (0): CifarSEBasicBlock(
      (conv1): Conv2d (32, 64, kernel_size=(3, 3), stride=(2, 2), padding=(1, 1), bias=False)
      (bn1): BatchNorm2d(64, eps=1e-05, momentum=0.1, affine=True)
      (relu): ReLU(inplace)
      (conv2): Conv2d (64, 64, kernel_size=(3, 3), stride=(1, 1), padding=(1, 1), bias=False)
      (bn2): BatchNorm2d(64, eps=1e-05, momentum=0.1, affine=True)
      (se): SELayer(
        (avg_pool): AdaptiveAvgPool2d(output_size=1)
        (fc): Sequential(
          (0): Linear(in_features=64, out_features=16)
          (1): ReLU(inplace)
          (2): Linear(in_features=16, out_features=64)
          (3): Sigmoid()
        )
      )
      (downsample): Sequential(
        (0): Conv2d (32, 64, kernel_size=(1, 1), stride=(2, 2), bias=False)
        (1): BatchNorm2d(64, eps=1e-05, momentum=0.1, affine=True)
      )
    )
    (1): CifarSEBasicBlock(
      (conv1): Conv2d (64, 64, kernel_size=(3, 3), stride=(1, 1), padding=(1, 1), bias=False)
      (bn1): BatchNorm2d(64, eps=1e-05, momentum=0.1, affine=True)
      (relu): ReLU(inplace)
      (conv2): Conv2d (64, 64, kernel_size=(3, 3), stride=(1, 1), padding=(1, 1), bias=False)
      (bn2): BatchNorm2d(64, eps=1e-05, momentum=0.1, affine=True)
      (se): SELayer(
        (avg_pool): AdaptiveAvgPool2d(output_size=1)
        (fc): Sequential(
          (0): Linear(in_features=64, out_features=16)
          (1): ReLU(inplace)
          (2): Linear(in_features=16, out_features=64)
          (3): Sigmoid()
        )
      )
      (downsample): Sequential(
        (0): Conv2d (64, 64, kernel_size=(1, 1), stride=(1, 1), bias=False)
        (1): BatchNorm2d(64, eps=1e-05, momentum=0.1, affine=True)
      )
    )
    (2): CifarSEBasicBlock(
      (conv1): Conv2d (64, 64, kernel_size=(3, 3), stride=(1, 1), padding=(1, 1), bias=False)
      (bn1): BatchNorm2d(64, eps=1e-05, momentum=0.1, affine=True)
      (relu): ReLU(inplace)
      (conv2): Conv2d (64, 64, kernel_size=(3, 3), stride=(1, 1), padding=(1, 1), bias=False)
      (bn2): BatchNorm2d(64, eps=1e-05, momentum=0.1, affine=True)
      (se): SELayer(
        (avg_pool): AdaptiveAvgPool2d(output_size=1)
        (fc): Sequential(
          (0): Linear(in_features=64, out_features=16)
          (1): ReLU(inplace)
          (2): Linear(in_features=16, out_features=64)
          (3): Sigmoid()
        )
      )
      (downsample): Sequential(
        (0): Conv2d (64, 64, kernel_size=(1, 1), stride=(1, 1), bias=False)
        (1): BatchNorm2d(64, eps=1e-05, momentum=0.1, affine=True)
      )
    )
    (3): CifarSEBasicBlock(
      (conv1): Conv2d (64, 64, kernel_size=(3, 3), stride=(1, 1), padding=(1, 1), bias=False)
      (bn1): BatchNorm2d(64, eps=1e-05, momentum=0.1, affine=True)
      (relu): ReLU(inplace)
      (conv2): Conv2d (64, 64, kernel_size=(3, 3), stride=(1, 1), padding=(1, 1), bias=False)
      (bn2): BatchNorm2d(64, eps=1e-05, momentum=0.1, affine=True)
      (se): SELayer(
        (avg_pool): AdaptiveAvgPool2d(output_size=1)
        (fc): Sequential(
          (0): Linear(in_features=64, out_features=16)
          (1): ReLU(inplace)
          (2): Linear(in_features=16, out_features=64)
          (3): Sigmoid()
        )
      )
      (downsample): Sequential(
        (0): Conv2d (64, 64, kernel_size=(1, 1), stride=(1, 1), bias=False)
        (1): BatchNorm2d(64, eps=1e-05, momentum=0.1, affine=True)
      )
    )
    (4): CifarSEBasicBlock(
      (conv1): Conv2d (64, 64, kernel_size=(3, 3), stride=(1, 1), padding=(1, 1), bias=False)
      (bn1): BatchNorm2d(64, eps=1e-05, momentum=0.1, affine=True)
      (relu): ReLU(inplace)
      (conv2): Conv2d (64, 64, kernel_size=(3, 3), stride=(1, 1), padding=(1, 1), bias=False)
      (bn2): BatchNorm2d(64, eps=1e-05, momentum=0.1, affine=True)
      (se): SELayer(
        (avg_pool): AdaptiveAvgPool2d(output_size=1)
        (fc): Sequential(
          (0): Linear(in_features=64, out_features=16)
          (1): ReLU(inplace)
          (2): Linear(in_features=16, out_features=64)
          (3): Sigmoid()
        )
      )
      (downsample): Sequential(
        (0): Conv2d (64, 64, kernel_size=(1, 1), stride=(1, 1), bias=False)
        (1): BatchNorm2d(64, eps=1e-05, momentum=0.1, affine=True)
      )
    )
  )
  (avgpool): AdaptiveAvgPool2d(output_size=1)
  (fc): Linear(in_features=64, out_features=10)
)
2018-02-23 16:34:57 INFO: train | epoch 115 | loss: 0.0194 | accuracy: 0.9955 | lr: 0.001000 | using time: 72.996
2018-02-23 16:34:57 INFO: last average accuracy is 0.9950
2018-02-23 16:34:59 INFO: train | epoch 32 | loss: 0.1057 | accuracy: 0.9638 | lr: 0.010000 | using time: 99.429
2018-02-23 16:34:59 INFO: last average accuracy is 0.9519
2018-02-23 16:35:01 INFO: test | loss: 0.4320 | accuracy: 0.8947 | lr: 0.001000 | using time: 3.660
…
2018-02-23 17:29:57 INFO: last average accuracy is 0.9965
2018-02-23 17:30:00 INFO: test | loss: 0.3050 | accuracy: 0.9063 | lr: 0.010000 | using time: 4.608
2018-02-23 17:30:01 INFO: test | loss: 0.4382 | accuracy: 0.8953 | lr: 0.000001 | using time: 4.111
2018-02-23 17:30:04 INFO: Load CIFAR10 train data OK. data size is (50000, 32, 32, 3)
2018-02-23 17:30:04 INFO: Load CIFAR10 test data OK. data size is (10000, 32, 32, 3)
2018-02-23 17:30:04 INFO: model name:shufflenet1
2018-02-23 17:30:04 INFO: model architecture:
ShuffleNetCifar10(
  (conv1): Conv2d (3, 16, kernel_size=(3, 3), stride=(1, 1), padding=(1, 1), bias=False)
  (bn1): BatchNorm2d(16, eps=1e-05, momentum=0.1, affine=True)
  (relu): ReLU(inplace)
  (layer1): Sequential(
    (0): ShuffleNetUnit(
      (gconv1): Conv2d (16, 16, kernel_size=(1, 1), stride=(1, 1), groups=16, bias=False)
      (bn1): BatchNorm2d(16, eps=1e-05, momentum=0.1, affine=True)
      (relu): ReLU(inplace)
      (shuffle): Shuffle(
      )
      (dwconv): Sequential(
        (0): Conv2d (16, 16, kernel_size=(3, 3), stride=(2, 2), padding=(1, 1), groups=16, bias=False)
        (1): BatchNorm2d(16, eps=1e-05, momentum=0.1, affine=True)
        (2): ReLU(inplace)
        (3): Conv2d (16, 16, kernel_size=(1, 1), stride=(1, 1), bias=False)
        (4): BatchNorm2d(16, eps=1e-05, momentum=0.1, affine=True)
        (5): ReLU(inplace)
      )
      (bn2): BatchNorm2d(16, eps=1e-05, momentum=0.1, affine=True)
      (gconv2): Conv2d (16, 16, kernel_size=(1, 1), stride=(1, 1), groups=16, bias=False)
      (bn3): BatchNorm2d(16, eps=1e-05, momentum=0.1, affine=True)
      (avg1): AvgPool2d(kernel_size=3, stride=2, padding=1, ceil_mode=False, count_include_pad=True)
    )
  )
  (layer2): Sequential(
    (0): ShuffleNetUnit(
      (gconv1): Conv2d (32, 32, kernel_size=(1, 1), stride=(1, 1), groups=32, bias=False)
      (bn1): BatchNorm2d(32, eps=1e-05, momentum=0.1, affine=True)
      (relu): ReLU(inplace)
      (shuffle): Shuffle(
      )
      (dwconv): Sequential(
        (0): Conv2d (32, 32, kernel_size=(3, 3), stride=(2, 2), padding=(1, 1), groups=32, bias=False)
        (1): BatchNorm2d(32, eps=1e-05, momentum=0.1, affine=True)
        (2): ReLU(inplace)
        (3): Conv2d (32, 32, kernel_size=(1, 1), stride=(1, 1), bias=False)
        (4): BatchNorm2d(32, eps=1e-05, momentum=0.1, affine=True)
        (5): ReLU(inplace)
      )
      (bn2): BatchNorm2d(32, eps=1e-05, momentum=0.1, affine=True)
      (gconv2): Conv2d (32, 32, kernel_size=(1, 1), stride=(1, 1), groups=32, bias=False)
      (bn3): BatchNorm2d(32, eps=1e-05, momentum=0.1, affine=True)
      (avg1): AvgPool2d(kernel_size=3, stride=2, padding=1, ceil_mode=False, count_include_pad=True)
    )
  )
  (layer3): Sequential(
    (0): ShuffleNetUnit(
      (gconv1): Conv2d (64, 64, kernel_size=(1, 1), stride=(1, 1), groups=64, bias=False)
      (bn1): BatchNorm2d(64, eps=1e-05, momentum=0.1, affine=True)
      (relu): ReLU(inplace)
      (shuffle): Shuffle(
      )
      (dwconv): Sequential(
        (0): Conv2d (64, 64, kernel_size=(3, 3), stride=(2, 2), padding=(1, 1), groups=64, bias=False)
        (1): BatchNorm2d(64, eps=1e-05, momentum=0.1, affine=True)
        (2): ReLU(inplace)
        (3): Conv2d (64, 64, kernel_size=(1, 1), stride=(1, 1), bias=False)
        (4): BatchNorm2d(64, eps=1e-05, momentum=0.1, affine=True)
        (5): ReLU(inplace)
      )
      (bn2): BatchNorm2d(64, eps=1e-05, momentum=0.1, affine=True)
      (gconv2): Conv2d (64, 64, kernel_size=(1, 1), stride=(1, 1), groups=64, bias=False)
      (bn3): BatchNorm2d(64, eps=1e-05, momentum=0.1, affine=True)
      (avg1): AvgPool2d(kernel_size=3, stride=2, padding=1, ceil_mode=False, count_include_pad=True)
    )
  )
  (avgpool): AdaptiveAvgPool2d(output_size=1)
  (fc): Linear(in_features=128, out_features=10)
)
2018-02-23 17:30:11 INFO: train | epoch 18 | loss: 0.2585 | accuracy: 0.9096 | lr: 0.100000 | using time: 140.102
2018-02-23 17:30:11 INFO: last average accuracy is 0.9078
2018-02-23 17:30:17 INFO: test | loss: 0.4737 | accuracy: 0.8442 | lr: 0.100000 | using time: 5.624
2018-02-23 17:30:19 INFO: train | epoch 87 | loss: 0.0125 | accuracy: 0.9969 | lr: 0.001000 | using time: 100.885
…
2018-02-23 17:52:00 INFO: train | epoch 120 | loss: 0.0181 | accuracy: 0.9958 | lr: 0.000001 | using time: 68.727
2018-02-23 17:52:00 INFO: last average accuracy is 0.9955
2018-02-23 17:52:04 INFO: test | loss: 0.4621 | accuracy: 0.8982 | lr: 0.000001 | using time: 3.909
2018-02-23 17:52:10 INFO: Load CIFAR10 train data OK. data size is (50000, 32, 32, 3)
2018-02-23 17:52:10 INFO: Load CIFAR10 test data OK. data size is (10000, 32, 32, 3)
2018-02-23 17:52:10 INFO: model name:shufflenet3
2018-02-23 17:52:10 INFO: model architecture:
ShuffleNetCifar10(
  (conv1): Conv2d (3, 16, kernel_size=(3, 3), stride=(1, 1), padding=(1, 1), bias=False)
  (bn1): BatchNorm2d(16, eps=1e-05, momentum=0.1, affine=True)
  (relu): ReLU(inplace)
  (layer1): Sequential(
    (0): ShuffleNetUnit(
      (gconv1): Conv2d (16, 16, kernel_size=(1, 1), stride=(1, 1), groups=16, bias=False)
      (bn1): BatchNorm2d(16, eps=1e-05, momentum=0.1, affine=True)
      (relu): ReLU(inplace)
      (shuffle): Shuffle(
      )
      (dwconv): Sequential(
        (0): Conv2d (16, 16, kernel_size=(3, 3), stride=(2, 2), padding=(1, 1), groups=16, bias=False)
        (1): BatchNorm2d(16, eps=1e-05, momentum=0.1, affine=True)
        (2): ReLU(inplace)
        (3): Conv2d (16, 16, kernel_size=(1, 1), stride=(1, 1), bias=False)
        (4): BatchNorm2d(16, eps=1e-05, momentum=0.1, affine=True)
        (5): ReLU(inplace)
      )
      (bn2): BatchNorm2d(16, eps=1e-05, momentum=0.1, affine=True)
      (gconv2): Conv2d (16, 16, kernel_size=(1, 1), stride=(1, 1), groups=16, bias=False)
      (bn3): BatchNorm2d(16, eps=1e-05, momentum=0.1, affine=True)
      (avg1): AvgPool2d(kernel_size=3, stride=2, padding=1, ceil_mode=False, count_include_pad=True)
    )
    (1): ShuffleNetUnit(
      (gconv1): Conv2d (32, 32, kernel_size=(1, 1), stride=(1, 1), groups=32, bias=False)
      (bn1): BatchNorm2d(32, eps=1e-05, momentum=0.1, affine=True)
      (relu): ReLU(inplace)
      (shuffle): Shuffle(
      )
      (dwconv): Sequential(
        (0): Conv2d (32, 32, kernel_size=(3, 3), stride=(1, 1), padding=(1, 1), groups=32, bias=False)
        (1): BatchNorm2d(32, eps=1e-05, momentum=0.1, affine=True)
        (2): ReLU(inplace)
        (3): Conv2d (32, 32, kernel_size=(1, 1), stride=(1, 1), bias=False)
        (4): BatchNorm2d(32, eps=1e-05, momentum=0.1, affine=True)
        (5): ReLU(inplace)
      )
      (bn2): BatchNorm2d(32, eps=1e-05, momentum=0.1, affine=True)
      (gconv2): Conv2d (32, 32, kernel_size=(1, 1), stride=(1, 1), groups=32, bias=False)
      (bn3): BatchNorm2d(32, eps=1e-05, momentum=0.1, affine=True)
    )
    (2): ShuffleNetUnit(
      (gconv1): Conv2d (32, 32, kernel_size=(1, 1), stride=(1, 1), groups=32, bias=False)
      (bn1): BatchNorm2d(32, eps=1e-05, momentum=0.1, affine=True)
      (relu): ReLU(inplace)
      (shuffle): Shuffle(
      )
      (dwconv): Sequential(
        (0): Conv2d (32, 32, kernel_size=(3, 3), stride=(1, 1), padding=(1, 1), groups=32, bias=False)
        (1): BatchNorm2d(32, eps=1e-05, momentum=0.1, affine=True)
        (2): ReLU(inplace)
        (3): Conv2d (32, 32, kernel_size=(1, 1), stride=(1, 1), bias=False)
        (4): BatchNorm2d(32, eps=1e-05, momentum=0.1, affine=True)
        (5): ReLU(inplace)
      )
      (bn2): BatchNorm2d(32, eps=1e-05, momentum=0.1, affine=True)
      (gconv2): Conv2d (32, 32, kernel_size=(1, 1), stride=(1, 1), groups=32, bias=False)
      (bn3): BatchNorm2d(32, eps=1e-05, momentum=0.1, affine=True)
    )
  )
  (layer2): Sequential(
    (0): ShuffleNetUnit(
      (gconv1): Conv2d (32, 32, kernel_size=(1, 1), stride=(1, 1), groups=32, bias=False)
      (bn1): BatchNorm2d(32, eps=1e-05, momentum=0.1, affine=True)
      (relu): ReLU(inplace)
      (shuffle): Shuffle(
      )
      (dwconv): Sequential(
        (0): Conv2d (32, 32, kernel_size=(3, 3), stride=(2, 2), padding=(1, 1), groups=32, bias=False)
        (1): BatchNorm2d(32, eps=1e-05, momentum=0.1, affine=True)
        (2): ReLU(inplace)
        (3): Conv2d (32, 32, kernel_size=(1, 1), stride=(1, 1), bias=False)
        (4): BatchNorm2d(32, eps=1e-05, momentum=0.1, affine=True)
        (5): ReLU(inplace)
      )
      (bn2): BatchNorm2d(32, eps=1e-05, momentum=0.1, affine=True)
      (gconv2): Conv2d (32, 32, kernel_size=(1, 1), stride=(1, 1), groups=32, bias=False)
      (bn3): BatchNorm2d(32, eps=1e-05, momentum=0.1, affine=True)
      (avg1): AvgPool2d(kernel_size=3, stride=2, padding=1, ceil_mode=False, count_include_pad=True)
    )
    (1): ShuffleNetUnit(
      (gconv1): Conv2d (64, 64, kernel_size=(1, 1), stride=(1, 1), groups=64, bias=False)
      (bn1): BatchNorm2d(64, eps=1e-05, momentum=0.1, affine=True)
      (relu): ReLU(inplace)
      (shuffle): Shuffle(
      )
      (dwconv): Sequential(
        (0): Conv2d (64, 64, kernel_size=(3, 3), stride=(1, 1), padding=(1, 1), groups=64, bias=False)
        (1): BatchNorm2d(64, eps=1e-05, momentum=0.1, affine=True)
        (2): ReLU(inplace)
        (3): Conv2d (64, 64, kernel_size=(1, 1), stride=(1, 1), bias=False)
        (4): BatchNorm2d(64, eps=1e-05, momentum=0.1, affine=True)
        (5): ReLU(inplace)
      )
      (bn2): BatchNorm2d(64, eps=1e-05, momentum=0.1, affine=True)
      (gconv2): Conv2d (64, 64, kernel_size=(1, 1), stride=(1, 1), groups=64, bias=False)
      (bn3): BatchNorm2d(64, eps=1e-05, momentum=0.1, affine=True)
    )
    (2): ShuffleNetUnit(
      (gconv1): Conv2d (64, 64, kernel_size=(1, 1), stride=(1, 1), groups=64, bias=False)
      (bn1): BatchNorm2d(64, eps=1e-05, momentum=0.1, affine=True)
      (relu): ReLU(inplace)
      (shuffle): Shuffle(
      )
      (dwconv): Sequential(
        (0): Conv2d (64, 64, kernel_size=(3, 3), stride=(1, 1), padding=(1, 1), groups=64, bias=False)
        (1): BatchNorm2d(64, eps=1e-05, momentum=0.1, affine=True)
        (2): ReLU(inplace)
        (3): Conv2d (64, 64, kernel_size=(1, 1), stride=(1, 1), bias=False)
        (4): BatchNorm2d(64, eps=1e-05, momentum=0.1, affine=True)
        (5): ReLU(inplace)
      )
      (bn2): BatchNorm2d(64, eps=1e-05, momentum=0.1, affine=True)
      (gconv2): Conv2d (64, 64, kernel_size=(1, 1), stride=(1, 1), groups=64, bias=False)
      (bn3): BatchNorm2d(64, eps=1e-05, momentum=0.1, affine=True)
    )
  )
  (layer3): Sequential(
    (0): ShuffleNetUnit(
      (gconv1): Conv2d (64, 64, kernel_size=(1, 1), stride=(1, 1), groups=64, bias=False)
      (bn1): BatchNorm2d(64, eps=1e-05, momentum=0.1, affine=True)
      (relu): ReLU(inplace)
      (shuffle): Shuffle(
      )
      (dwconv): Sequential(
        (0): Conv2d (64, 64, kernel_size=(3, 3), stride=(2, 2), padding=(1, 1), groups=64, bias=False)
        (1): BatchNorm2d(64, eps=1e-05, momentum=0.1, affine=True)
        (2): ReLU(inplace)
        (3): Conv2d (64, 64, kernel_size=(1, 1), stride=(1, 1), bias=False)
        (4): BatchNorm2d(64, eps=1e-05, momentum=0.1, affine=True)
        (5): ReLU(inplace)
      )
      (bn2): BatchNorm2d(64, eps=1e-05, momentum=0.1, affine=True)
      (gconv2): Conv2d (64, 64, kernel_size=(1, 1), stride=(1, 1), groups=64, bias=False)
      (bn3): BatchNorm2d(64, eps=1e-05, momentum=0.1, affine=True)
      (avg1): AvgPool2d(kernel_size=3, stride=2, padding=1, ceil_mode=False, count_include_pad=True)
    )
    (1): ShuffleNetUnit(
      (gconv1): Conv2d (128, 128, kernel_size=(1, 1), stride=(1, 1), groups=128, bias=False)
      (bn1): BatchNorm2d(128, eps=1e-05, momentum=0.1, affine=True)
      (relu): ReLU(inplace)
      (shuffle): Shuffle(
      )
      (dwconv): Sequential(
        (0): Conv2d (128, 128, kernel_size=(3, 3), stride=(1, 1), padding=(1, 1), groups=128, bias=False)
        (1): BatchNorm2d(128, eps=1e-05, momentum=0.1, affine=True)
        (2): ReLU(inplace)
        (3): Conv2d (128, 128, kernel_size=(1, 1), stride=(1, 1), bias=False)
        (4): BatchNorm2d(128, eps=1e-05, momentum=0.1, affine=True)
        (5): ReLU(inplace)
      )
      (bn2): BatchNorm2d(128, eps=1e-05, momentum=0.1, affine=True)
      (gconv2): Conv2d (128, 128, kernel_size=(1, 1), stride=(1, 1), groups=128, bias=False)
      (bn3): BatchNorm2d(128, eps=1e-05, momentum=0.1, affine=True)
    )
    (2): ShuffleNetUnit(
      (gconv1): Conv2d (128, 128, kernel_size=(1, 1), stride=(1, 1), groups=128, bias=False)
      (bn1): BatchNorm2d(128, eps=1e-05, momentum=0.1, affine=True)
      (relu): ReLU(inplace)
      (shuffle): Shuffle(
      )
      (dwconv): Sequential(
        (0): Conv2d (128, 128, kernel_size=(3, 3), stride=(1, 1), padding=(1, 1), groups=128, bias=False)
        (1): BatchNorm2d(128, eps=1e-05, momentum=0.1, affine=True)
        (2): ReLU(inplace)
        (3): Conv2d (128, 128, kernel_size=(1, 1), stride=(1, 1), bias=False)
        (4): BatchNorm2d(128, eps=1e-05, momentum=0.1, affine=True)
        (5): ReLU(inplace)
      )
      (bn2): BatchNorm2d(128, eps=1e-05, momentum=0.1, affine=True)
      (gconv2): Conv2d (128, 128, kernel_size=(1, 1), stride=(1, 1), groups=128, bias=False)
      (bn3): BatchNorm2d(128, eps=1e-05, momentum=0.1, affine=True)
    )
  )
  (avgpool): AdaptiveAvgPool2d(output_size=1)
  (fc): Linear(in_features=128, out_features=10)
)
2018-02-23 17:52:33 INFO: train | epoch 7 | loss: 1.1274 | accuracy: 0.5976 | lr: 0.100000 | using time: 95.519
2018-02-23 17:52:33 INFO: last average accuracy is 0.5899
2018-02-23 17:52:35 INFO: train | epoch 102 | loss: 0.0100 | accuracy: 0.9978 | lr: 0.000100 | using time: 82.322
2018-02-23 17:52:35 INFO: last average accuracy is 0.9979
2018-02-23 17:52:37 INFO: train | epoch 79 | loss: 0.0148 | accuracy: 0.9962 | lr: 0.001000 | using time: 81.366
…
2018-02-23 18:14:00 INFO: last average accuracy is 0.9894
2018-02-23 18:14:03 INFO: test | loss: 0.4418 | accuracy: 0.9043 | lr: 0.000010 | using time: 4.279
2018-02-23 18:14:04 INFO: test | loss: 0.7825 | accuracy: 0.8568 | lr: 0.000001 | using time: 3.544
2018-02-23 18:14:06 INFO: Load CIFAR10 train data OK. data size is (50000, 32, 32, 3)
2018-02-23 18:14:06 INFO: Load CIFAR10 test data OK. data size is (10000, 32, 32, 3)
2018-02-23 18:14:06 INFO: model name:shufflenet4
2018-02-23 18:14:06 INFO: model architecture:
ShuffleNetCifar10(
  (conv1): Conv2d (3, 16, kernel_size=(3, 3), stride=(1, 1), padding=(1, 1), bias=False)
  (bn1): BatchNorm2d(16, eps=1e-05, momentum=0.1, affine=True)
  (relu): ReLU(inplace)
  (layer1): Sequential(
    (0): ShuffleNetUnit(
      (gconv1): Conv2d (16, 16, kernel_size=(1, 1), stride=(1, 1), groups=16, bias=False)
      (bn1): BatchNorm2d(16, eps=1e-05, momentum=0.1, affine=True)
      (relu): ReLU(inplace)
      (shuffle): Shuffle(
      )
      (dwconv): Sequential(
        (0): Conv2d (16, 16, kernel_size=(3, 3), stride=(2, 2), padding=(1, 1), groups=16, bias=False)
        (1): BatchNorm2d(16, eps=1e-05, momentum=0.1, affine=True)
        (2): ReLU(inplace)
        (3): Conv2d (16, 16, kernel_size=(1, 1), stride=(1, 1), bias=False)
        (4): BatchNorm2d(16, eps=1e-05, momentum=0.1, affine=True)
        (5): ReLU(inplace)
      )
      (bn2): BatchNorm2d(16, eps=1e-05, momentum=0.1, affine=True)
      (gconv2): Conv2d (16, 16, kernel_size=(1, 1), stride=(1, 1), groups=16, bias=False)
      (bn3): BatchNorm2d(16, eps=1e-05, momentum=0.1, affine=True)
      (avg1): AvgPool2d(kernel_size=3, stride=2, padding=1, ceil_mode=False, count_include_pad=True)
    )
    (1): ShuffleNetUnit(
      (gconv1): Conv2d (32, 32, kernel_size=(1, 1), stride=(1, 1), groups=32, bias=False)
      (bn1): BatchNorm2d(32, eps=1e-05, momentum=0.1, affine=True)
      (relu): ReLU(inplace)
      (shuffle): Shuffle(
      )
      (dwconv): Sequential(
        (0): Conv2d (32, 32, kernel_size=(3, 3), stride=(1, 1), padding=(1, 1), groups=32, bias=False)
        (1): BatchNorm2d(32, eps=1e-05, momentum=0.1, affine=True)
        (2): ReLU(inplace)
        (3): Conv2d (32, 32, kernel_size=(1, 1), stride=(1, 1), bias=False)
        (4): BatchNorm2d(32, eps=1e-05, momentum=0.1, affine=True)
        (5): ReLU(inplace)
      )
      (bn2): BatchNorm2d(32, eps=1e-05, momentum=0.1, affine=True)
      (gconv2): Conv2d (32, 32, kernel_size=(1, 1), stride=(1, 1), groups=32, bias=False)
      (bn3): BatchNorm2d(32, eps=1e-05, momentum=0.1, affine=True)
    )
    (2): ShuffleNetUnit(
      (gconv1): Conv2d (32, 32, kernel_size=(1, 1), stride=(1, 1), groups=32, bias=False)
      (bn1): BatchNorm2d(32, eps=1e-05, momentum=0.1, affine=True)
      (relu): ReLU(inplace)
      (shuffle): Shuffle(
      )
      (dwconv): Sequential(
        (0): Conv2d (32, 32, kernel_size=(3, 3), stride=(1, 1), padding=(1, 1), groups=32, bias=False)
        (1): BatchNorm2d(32, eps=1e-05, momentum=0.1, affine=True)
        (2): ReLU(inplace)
        (3): Conv2d (32, 32, kernel_size=(1, 1), stride=(1, 1), bias=False)
        (4): BatchNorm2d(32, eps=1e-05, momentum=0.1, affine=True)
        (5): ReLU(inplace)
      )
      (bn2): BatchNorm2d(32, eps=1e-05, momentum=0.1, affine=True)
      (gconv2): Conv2d (32, 32, kernel_size=(1, 1), stride=(1, 1), groups=32, bias=False)
      (bn3): BatchNorm2d(32, eps=1e-05, momentum=0.1, affine=True)
    )
    (3): ShuffleNetUnit(
      (gconv1): Conv2d (32, 32, kernel_size=(1, 1), stride=(1, 1), groups=32, bias=False)
      (bn1): BatchNorm2d(32, eps=1e-05, momentum=0.1, affine=True)
      (relu): ReLU(inplace)
      (shuffle): Shuffle(
      )
      (dwconv): Sequential(
        (0): Conv2d (32, 32, kernel_size=(3, 3), stride=(1, 1), padding=(1, 1), groups=32, bias=False)
        (1): BatchNorm2d(32, eps=1e-05, momentum=0.1, affine=True)
        (2): ReLU(inplace)
        (3): Conv2d (32, 32, kernel_size=(1, 1), stride=(1, 1), bias=False)
        (4): BatchNorm2d(32, eps=1e-05, momentum=0.1, affine=True)
        (5): ReLU(inplace)
      )
      (bn2): BatchNorm2d(32, eps=1e-05, momentum=0.1, affine=True)
      (gconv2): Conv2d (32, 32, kernel_size=(1, 1), stride=(1, 1), groups=32, bias=False)
      (bn3): BatchNorm2d(32, eps=1e-05, momentum=0.1, affine=True)
    )
  )
  (layer2): Sequential(
    (0): ShuffleNetUnit(
      (gconv1): Conv2d (32, 32, kernel_size=(1, 1), stride=(1, 1), groups=32, bias=False)
      (bn1): BatchNorm2d(32, eps=1e-05, momentum=0.1, affine=True)
      (relu): ReLU(inplace)
      (shuffle): Shuffle(
      )
      (dwconv): Sequential(
        (0): Conv2d (32, 32, kernel_size=(3, 3), stride=(2, 2), padding=(1, 1), groups=32, bias=False)
        (1): BatchNorm2d(32, eps=1e-05, momentum=0.1, affine=True)
        (2): ReLU(inplace)
        (3): Conv2d (32, 32, kernel_size=(1, 1), stride=(1, 1), bias=False)
        (4): BatchNorm2d(32, eps=1e-05, momentum=0.1, affine=True)
        (5): ReLU(inplace)
      )
      (bn2): BatchNorm2d(32, eps=1e-05, momentum=0.1, affine=True)
      (gconv2): Conv2d (32, 32, kernel_size=(1, 1), stride=(1, 1), groups=32, bias=False)
      (bn3): BatchNorm2d(32, eps=1e-05, momentum=0.1, affine=True)
      (avg1): AvgPool2d(kernel_size=3, stride=2, padding=1, ceil_mode=False, count_include_pad=True)
    )
    (1): ShuffleNetUnit(
      (gconv1): Conv2d (64, 64, kernel_size=(1, 1), stride=(1, 1), groups=64, bias=False)
      (bn1): BatchNorm2d(64, eps=1e-05, momentum=0.1, affine=True)
      (relu): ReLU(inplace)
      (shuffle): Shuffle(
      )
      (dwconv): Sequential(
        (0): Conv2d (64, 64, kernel_size=(3, 3), stride=(1, 1), padding=(1, 1), groups=64, bias=False)
        (1): BatchNorm2d(64, eps=1e-05, momentum=0.1, affine=True)
        (2): ReLU(inplace)
        (3): Conv2d (64, 64, kernel_size=(1, 1), stride=(1, 1), bias=False)
        (4): BatchNorm2d(64, eps=1e-05, momentum=0.1, affine=True)
        (5): ReLU(inplace)
      )
      (bn2): BatchNorm2d(64, eps=1e-05, momentum=0.1, affine=True)
      (gconv2): Conv2d (64, 64, kernel_size=(1, 1), stride=(1, 1), groups=64, bias=False)
      (bn3): BatchNorm2d(64, eps=1e-05, momentum=0.1, affine=True)
    )
    (2): ShuffleNetUnit(
      (gconv1): Conv2d (64, 64, kernel_size=(1, 1), stride=(1, 1), groups=64, bias=False)
      (bn1): BatchNorm2d(64, eps=1e-05, momentum=0.1, affine=True)
      (relu): ReLU(inplace)
      (shuffle): Shuffle(
      )
      (dwconv): Sequential(
        (0): Conv2d (64, 64, kernel_size=(3, 3), stride=(1, 1), padding=(1, 1), groups=64, bias=False)
        (1): BatchNorm2d(64, eps=1e-05, momentum=0.1, affine=True)
        (2): ReLU(inplace)
        (3): Conv2d (64, 64, kernel_size=(1, 1), stride=(1, 1), bias=False)
        (4): BatchNorm2d(64, eps=1e-05, momentum=0.1, affine=True)
        (5): ReLU(inplace)
      )
      (bn2): BatchNorm2d(64, eps=1e-05, momentum=0.1, affine=True)
      (gconv2): Conv2d (64, 64, kernel_size=(1, 1), stride=(1, 1), groups=64, bias=False)
      (bn3): BatchNorm2d(64, eps=1e-05, momentum=0.1, affine=True)
    )
    (3): ShuffleNetUnit(
      (gconv1): Conv2d (64, 64, kernel_size=(1, 1), stride=(1, 1), groups=64, bias=False)
      (bn1): BatchNorm2d(64, eps=1e-05, momentum=0.1, affine=True)
      (relu): ReLU(inplace)
      (shuffle): Shuffle(
      )
      (dwconv): Sequential(
        (0): Conv2d (64, 64, kernel_size=(3, 3), stride=(1, 1), padding=(1, 1), groups=64, bias=False)
        (1): BatchNorm2d(64, eps=1e-05, momentum=0.1, affine=True)
        (2): ReLU(inplace)
        (3): Conv2d (64, 64, kernel_size=(1, 1), stride=(1, 1), bias=False)
        (4): BatchNorm2d(64, eps=1e-05, momentum=0.1, affine=True)
        (5): ReLU(inplace)
      )
      (bn2): BatchNorm2d(64, eps=1e-05, momentum=0.1, affine=True)
      (gconv2): Conv2d (64, 64, kernel_size=(1, 1), stride=(1, 1), groups=64, bias=False)
      (bn3): BatchNorm2d(64, eps=1e-05, momentum=0.1, affine=True)
    )
  )
  (layer3): Sequential(
    (0): ShuffleNetUnit(
      (gconv1): Conv2d (64, 64, kernel_size=(1, 1), stride=(1, 1), groups=64, bias=False)
      (bn1): BatchNorm2d(64, eps=1e-05, momentum=0.1, affine=True)
      (relu): ReLU(inplace)
      (shuffle): Shuffle(
      )
      (dwconv): Sequential(
        (0): Conv2d (64, 64, kernel_size=(3, 3), stride=(2, 2), padding=(1, 1), groups=64, bias=False)
        (1): BatchNorm2d(64, eps=1e-05, momentum=0.1, affine=True)
        (2): ReLU(inplace)
        (3): Conv2d (64, 64, kernel_size=(1, 1), stride=(1, 1), bias=False)
        (4): BatchNorm2d(64, eps=1e-05, momentum=0.1, affine=True)
        (5): ReLU(inplace)
      )
      (bn2): BatchNorm2d(64, eps=1e-05, momentum=0.1, affine=True)
      (gconv2): Conv2d (64, 64, kernel_size=(1, 1), stride=(1, 1), groups=64, bias=False)
      (bn3): BatchNorm2d(64, eps=1e-05, momentum=0.1, affine=True)
      (avg1): AvgPool2d(kernel_size=3, stride=2, padding=1, ceil_mode=False, count_include_pad=True)
    )
    (1): ShuffleNetUnit(
      (gconv1): Conv2d (128, 128, kernel_size=(1, 1), stride=(1, 1), groups=128, bias=False)
      (bn1): BatchNorm2d(128, eps=1e-05, momentum=0.1, affine=True)
      (relu): ReLU(inplace)
      (shuffle): Shuffle(
      )
      (dwconv): Sequential(
        (0): Conv2d (128, 128, kernel_size=(3, 3), stride=(1, 1), padding=(1, 1), groups=128, bias=False)
        (1): BatchNorm2d(128, eps=1e-05, momentum=0.1, affine=True)
        (2): ReLU(inplace)
        (3): Conv2d (128, 128, kernel_size=(1, 1), stride=(1, 1), bias=False)
        (4): BatchNorm2d(128, eps=1e-05, momentum=0.1, affine=True)
        (5): ReLU(inplace)
      )
      (bn2): BatchNorm2d(128, eps=1e-05, momentum=0.1, affine=True)
      (gconv2): Conv2d (128, 128, kernel_size=(1, 1), stride=(1, 1), groups=128, bias=False)
      (bn3): BatchNorm2d(128, eps=1e-05, momentum=0.1, affine=True)
    )
    (2): ShuffleNetUnit(
      (gconv1): Conv2d (128, 128, kernel_size=(1, 1), stride=(1, 1), groups=128, bias=False)
      (bn1): BatchNorm2d(128, eps=1e-05, momentum=0.1, affine=True)
      (relu): ReLU(inplace)
      (shuffle): Shuffle(
      )
      (dwconv): Sequential(
        (0): Conv2d (128, 128, kernel_size=(3, 3), stride=(1, 1), padding=(1, 1), groups=128, bias=False)
        (1): BatchNorm2d(128, eps=1e-05, momentum=0.1, affine=True)
        (2): ReLU(inplace)
        (3): Conv2d (128, 128, kernel_size=(1, 1), stride=(1, 1), bias=False)
        (4): BatchNorm2d(128, eps=1e-05, momentum=0.1, affine=True)
        (5): ReLU(inplace)
      )
      (bn2): BatchNorm2d(128, eps=1e-05, momentum=0.1, affine=True)
      (gconv2): Conv2d (128, 128, kernel_size=(1, 1), stride=(1, 1), groups=128, bias=False)
      (bn3): BatchNorm2d(128, eps=1e-05, momentum=0.1, affine=True)
    )
    (3): ShuffleNetUnit(
      (gconv1): Conv2d (128, 128, kernel_size=(1, 1), stride=(1, 1), groups=128, bias=False)
      (bn1): BatchNorm2d(128, eps=1e-05, momentum=0.1, affine=True)
      (relu): ReLU(inplace)
      (shuffle): Shuffle(
      )
      (dwconv): Sequential(
        (0): Conv2d (128, 128, kernel_size=(3, 3), stride=(1, 1), padding=(1, 1), groups=128, bias=False)
        (1): BatchNorm2d(128, eps=1e-05, momentum=0.1, affine=True)
        (2): ReLU(inplace)
        (3): Conv2d (128, 128, kernel_size=(1, 1), stride=(1, 1), bias=False)
        (4): BatchNorm2d(128, eps=1e-05, momentum=0.1, affine=True)
        (5): ReLU(inplace)
      )
      (bn2): BatchNorm2d(128, eps=1e-05, momentum=0.1, affine=True)
      (gconv2): Conv2d (128, 128, kernel_size=(1, 1), stride=(1, 1), groups=128, bias=False)
      (bn3): BatchNorm2d(128, eps=1e-05, momentum=0.1, affine=True)
    )
  )
  (avgpool): AdaptiveAvgPool2d(output_size=1)
  (fc): Linear(in_features=128, out_features=10)
)
2018-02-23 18:14:17 INFO: train | epoch 40 | loss: 0.0708 | accuracy: 0.9766 | lr: 0.010000 | using time: 110.119
2018-02-23 18:14:17 INFO: last average accuracy is 0.9518
2018-02-23 18:14:21 INFO: train | epoch 21 | loss: 1.0113 | accuracy: 0.6415 | lr: 0.010000 | using time: 89.638
2018-02-23 18:14:21 INFO: last average accuracy is 0.6378
2018-02-23 18:14:22 INFO: test | loss: 0.2589 | accuracy: 0.9190 | lr: 0.010000 | using time: 4.721
…
2018-02-23 18:30:01 INFO: train | epoch 130 | loss: 0.0100 | accuracy: 0.9977 | lr: 0.000001 | using time: 77.184
2018-02-23 18:30:01 INFO: last average accuracy is 0.9979
2018-02-23 18:30:05 INFO: test | loss: 0.4405 | accuracy: 0.9051 | lr: 0.000001 | using time: 4.258
2018-02-23 18:30:12 INFO: Load CIFAR10 train data OK. data size is (50000, 32, 32, 3)
2018-02-23 18:30:12 INFO: Load CIFAR10 test data OK. data size is (10000, 32, 32, 3)
2018-02-23 18:30:12 INFO: model name:shufflenet6
2018-02-23 18:30:12 INFO: model architecture:
ShuffleNetCifar10(
  (conv1): Conv2d (3, 16, kernel_size=(3, 3), stride=(1, 1), padding=(1, 1), bias=False)
  (bn1): BatchNorm2d(16, eps=1e-05, momentum=0.1, affine=True)
  (relu): ReLU(inplace)
  (layer1): Sequential(
    (0): ShuffleNetUnit(
      (gconv1): Conv2d (16, 16, kernel_size=(1, 1), stride=(1, 1), groups=16, bias=False)
      (bn1): BatchNorm2d(16, eps=1e-05, momentum=0.1, affine=True)
      (relu): ReLU(inplace)
      (shuffle): Shuffle(
      )
      (dwconv): Sequential(
        (0): Conv2d (16, 16, kernel_size=(3, 3), stride=(2, 2), padding=(1, 1), groups=16, bias=False)
        (1): BatchNorm2d(16, eps=1e-05, momentum=0.1, affine=True)
        (2): ReLU(inplace)
        (3): Conv2d (16, 16, kernel_size=(1, 1), stride=(1, 1), bias=False)
        (4): BatchNorm2d(16, eps=1e-05, momentum=0.1, affine=True)
        (5): ReLU(inplace)
      )
      (bn2): BatchNorm2d(16, eps=1e-05, momentum=0.1, affine=True)
      (gconv2): Conv2d (16, 16, kernel_size=(1, 1), stride=(1, 1), groups=16, bias=False)
      (bn3): BatchNorm2d(16, eps=1e-05, momentum=0.1, affine=True)
      (avg1): AvgPool2d(kernel_size=3, stride=2, padding=1, ceil_mode=False, count_include_pad=True)
    )
    (1): ShuffleNetUnit(
      (gconv1): Conv2d (32, 32, kernel_size=(1, 1), stride=(1, 1), groups=32, bias=False)
      (bn1): BatchNorm2d(32, eps=1e-05, momentum=0.1, affine=True)
      (relu): ReLU(inplace)
      (shuffle): Shuffle(
      )
      (dwconv): Sequential(
        (0): Conv2d (32, 32, kernel_size=(3, 3), stride=(1, 1), padding=(1, 1), groups=32, bias=False)
        (1): BatchNorm2d(32, eps=1e-05, momentum=0.1, affine=True)
        (2): ReLU(inplace)
        (3): Conv2d (32, 32, kernel_size=(1, 1), stride=(1, 1), bias=False)
        (4): BatchNorm2d(32, eps=1e-05, momentum=0.1, affine=True)
        (5): ReLU(inplace)
      )
      (bn2): BatchNorm2d(32, eps=1e-05, momentum=0.1, affine=True)
      (gconv2): Conv2d (32, 32, kernel_size=(1, 1), stride=(1, 1), groups=32, bias=False)
      (bn3): BatchNorm2d(32, eps=1e-05, momentum=0.1, affine=True)
    )
    (2): ShuffleNetUnit(
      (gconv1): Conv2d (32, 32, kernel_size=(1, 1), stride=(1, 1), groups=32, bias=False)
      (bn1): BatchNorm2d(32, eps=1e-05, momentum=0.1, affine=True)
      (relu): ReLU(inplace)
      (shuffle): Shuffle(
      )
      (dwconv): Sequential(
        (0): Conv2d (32, 32, kernel_size=(3, 3), stride=(1, 1), padding=(1, 1), groups=32, bias=False)
        (1): BatchNorm2d(32, eps=1e-05, momentum=0.1, affine=True)
        (2): ReLU(inplace)
        (3): Conv2d (32, 32, kernel_size=(1, 1), stride=(1, 1), bias=False)
        (4): BatchNorm2d(32, eps=1e-05, momentum=0.1, affine=True)
        (5): ReLU(inplace)
      )
      (bn2): BatchNorm2d(32, eps=1e-05, momentum=0.1, affine=True)
      (gconv2): Conv2d (32, 32, kernel_size=(1, 1), stride=(1, 1), groups=32, bias=False)
      (bn3): BatchNorm2d(32, eps=1e-05, momentum=0.1, affine=True)
    )
    (3): ShuffleNetUnit(
      (gconv1): Conv2d (32, 32, kernel_size=(1, 1), stride=(1, 1), groups=32, bias=False)
      (bn1): BatchNorm2d(32, eps=1e-05, momentum=0.1, affine=True)
      (relu): ReLU(inplace)
      (shuffle): Shuffle(
      )
      (dwconv): Sequential(
        (0): Conv2d (32, 32, kernel_size=(3, 3), stride=(1, 1), padding=(1, 1), groups=32, bias=False)
        (1): BatchNorm2d(32, eps=1e-05, momentum=0.1, affine=True)
        (2): ReLU(inplace)
        (3): Conv2d (32, 32, kernel_size=(1, 1), stride=(1, 1), bias=False)
        (4): BatchNorm2d(32, eps=1e-05, momentum=0.1, affine=True)
        (5): ReLU(inplace)
      )
      (bn2): BatchNorm2d(32, eps=1e-05, momentum=0.1, affine=True)
      (gconv2): Conv2d (32, 32, kernel_size=(1, 1), stride=(1, 1), groups=32, bias=False)
      (bn3): BatchNorm2d(32, eps=1e-05, momentum=0.1, affine=True)
    )
    (4): ShuffleNetUnit(
      (gconv1): Conv2d (32, 32, kernel_size=(1, 1), stride=(1, 1), groups=32, bias=False)
      (bn1): BatchNorm2d(32, eps=1e-05, momentum=0.1, affine=True)
      (relu): ReLU(inplace)
      (shuffle): Shuffle(
      )
      (dwconv): Sequential(
        (0): Conv2d (32, 32, kernel_size=(3, 3), stride=(1, 1), padding=(1, 1), groups=32, bias=False)
        (1): BatchNorm2d(32, eps=1e-05, momentum=0.1, affine=True)
        (2): ReLU(inplace)
        (3): Conv2d (32, 32, kernel_size=(1, 1), stride=(1, 1), bias=False)
        (4): BatchNorm2d(32, eps=1e-05, momentum=0.1, affine=True)
        (5): ReLU(inplace)
      )
      (bn2): BatchNorm2d(32, eps=1e-05, momentum=0.1, affine=True)
      (gconv2): Conv2d (32, 32, kernel_size=(1, 1), stride=(1, 1), groups=32, bias=False)
      (bn3): BatchNorm2d(32, eps=1e-05, momentum=0.1, affine=True)
    )
    (5): ShuffleNetUnit(
      (gconv1): Conv2d (32, 32, kernel_size=(1, 1), stride=(1, 1), groups=32, bias=False)
      (bn1): BatchNorm2d(32, eps=1e-05, momentum=0.1, affine=True)
      (relu): ReLU(inplace)
      (shuffle): Shuffle(
      )
      (dwconv): Sequential(
        (0): Conv2d (32, 32, kernel_size=(3, 3), stride=(1, 1), padding=(1, 1), groups=32, bias=False)
        (1): BatchNorm2d(32, eps=1e-05, momentum=0.1, affine=True)
        (2): ReLU(inplace)
        (3): Conv2d (32, 32, kernel_size=(1, 1), stride=(1, 1), bias=False)
        (4): BatchNorm2d(32, eps=1e-05, momentum=0.1, affine=True)
        (5): ReLU(inplace)
      )
      (bn2): BatchNorm2d(32, eps=1e-05, momentum=0.1, affine=True)
      (gconv2): Conv2d (32, 32, kernel_size=(1, 1), stride=(1, 1), groups=32, bias=False)
      (bn3): BatchNorm2d(32, eps=1e-05, momentum=0.1, affine=True)
    )
  )
  (layer2): Sequential(
    (0): ShuffleNetUnit(
      (gconv1): Conv2d (32, 32, kernel_size=(1, 1), stride=(1, 1), groups=32, bias=False)
      (bn1): BatchNorm2d(32, eps=1e-05, momentum=0.1, affine=True)
      (relu): ReLU(inplace)
      (shuffle): Shuffle(
      )
      (dwconv): Sequential(
        (0): Conv2d (32, 32, kernel_size=(3, 3), stride=(2, 2), padding=(1, 1), groups=32, bias=False)
        (1): BatchNorm2d(32, eps=1e-05, momentum=0.1, affine=True)
        (2): ReLU(inplace)
        (3): Conv2d (32, 32, kernel_size=(1, 1), stride=(1, 1), bias=False)
        (4): BatchNorm2d(32, eps=1e-05, momentum=0.1, affine=True)
        (5): ReLU(inplace)
      )
      (bn2): BatchNorm2d(32, eps=1e-05, momentum=0.1, affine=True)
      (gconv2): Conv2d (32, 32, kernel_size=(1, 1), stride=(1, 1), groups=32, bias=False)
      (bn3): BatchNorm2d(32, eps=1e-05, momentum=0.1, affine=True)
      (avg1): AvgPool2d(kernel_size=3, stride=2, padding=1, ceil_mode=False, count_include_pad=True)
    )
    (1): ShuffleNetUnit(
      (gconv1): Conv2d (64, 64, kernel_size=(1, 1), stride=(1, 1), groups=64, bias=False)
      (bn1): BatchNorm2d(64, eps=1e-05, momentum=0.1, affine=True)
      (relu): ReLU(inplace)
      (shuffle): Shuffle(
      )
      (dwconv): Sequential(
        (0): Conv2d (64, 64, kernel_size=(3, 3), stride=(1, 1), padding=(1, 1), groups=64, bias=False)
        (1): BatchNorm2d(64, eps=1e-05, momentum=0.1, affine=True)
        (2): ReLU(inplace)
        (3): Conv2d (64, 64, kernel_size=(1, 1), stride=(1, 1), bias=False)
        (4): BatchNorm2d(64, eps=1e-05, momentum=0.1, affine=True)
        (5): ReLU(inplace)
      )
      (bn2): BatchNorm2d(64, eps=1e-05, momentum=0.1, affine=True)
      (gconv2): Conv2d (64, 64, kernel_size=(1, 1), stride=(1, 1), groups=64, bias=False)
      (bn3): BatchNorm2d(64, eps=1e-05, momentum=0.1, affine=True)
    )
    (2): ShuffleNetUnit(
      (gconv1): Conv2d (64, 64, kernel_size=(1, 1), stride=(1, 1), groups=64, bias=False)
      (bn1): BatchNorm2d(64, eps=1e-05, momentum=0.1, affine=True)
      (relu): ReLU(inplace)
      (shuffle): Shuffle(
      )
      (dwconv): Sequential(
        (0): Conv2d (64, 64, kernel_size=(3, 3), stride=(1, 1), padding=(1, 1), groups=64, bias=False)
        (1): BatchNorm2d(64, eps=1e-05, momentum=0.1, affine=True)
        (2): ReLU(inplace)
        (3): Conv2d (64, 64, kernel_size=(1, 1), stride=(1, 1), bias=False)
        (4): BatchNorm2d(64, eps=1e-05, momentum=0.1, affine=True)
        (5): ReLU(inplace)
      )
      (bn2): BatchNorm2d(64, eps=1e-05, momentum=0.1, affine=True)
      (gconv2): Conv2d (64, 64, kernel_size=(1, 1), stride=(1, 1), groups=64, bias=False)
      (bn3): BatchNorm2d(64, eps=1e-05, momentum=0.1, affine=True)
    )
    (3): ShuffleNetUnit(
      (gconv1): Conv2d (64, 64, kernel_size=(1, 1), stride=(1, 1), groups=64, bias=False)
      (bn1): BatchNorm2d(64, eps=1e-05, momentum=0.1, affine=True)
      (relu): ReLU(inplace)
      (shuffle): Shuffle(
      )
      (dwconv): Sequential(
        (0): Conv2d (64, 64, kernel_size=(3, 3), stride=(1, 1), padding=(1, 1), groups=64, bias=False)
        (1): BatchNorm2d(64, eps=1e-05, momentum=0.1, affine=True)
        (2): ReLU(inplace)
        (3): Conv2d (64, 64, kernel_size=(1, 1), stride=(1, 1), bias=False)
        (4): BatchNorm2d(64, eps=1e-05, momentum=0.1, affine=True)
        (5): ReLU(inplace)
      )
      (bn2): BatchNorm2d(64, eps=1e-05, momentum=0.1, affine=True)
      (gconv2): Conv2d (64, 64, kernel_size=(1, 1), stride=(1, 1), groups=64, bias=False)
      (bn3): BatchNorm2d(64, eps=1e-05, momentum=0.1, affine=True)
    )
    (4): ShuffleNetUnit(
      (gconv1): Conv2d (64, 64, kernel_size=(1, 1), stride=(1, 1), groups=64, bias=False)
      (bn1): BatchNorm2d(64, eps=1e-05, momentum=0.1, affine=True)
      (relu): ReLU(inplace)
      (shuffle): Shuffle(
      )
      (dwconv): Sequential(
        (0): Conv2d (64, 64, kernel_size=(3, 3), stride=(1, 1), padding=(1, 1), groups=64, bias=False)
        (1): BatchNorm2d(64, eps=1e-05, momentum=0.1, affine=True)
        (2): ReLU(inplace)
        (3): Conv2d (64, 64, kernel_size=(1, 1), stride=(1, 1), bias=False)
        (4): BatchNorm2d(64, eps=1e-05, momentum=0.1, affine=True)
        (5): ReLU(inplace)
      )
      (bn2): BatchNorm2d(64, eps=1e-05, momentum=0.1, affine=True)
      (gconv2): Conv2d (64, 64, kernel_size=(1, 1), stride=(1, 1), groups=64, bias=False)
      (bn3): BatchNorm2d(64, eps=1e-05, momentum=0.1, affine=True)
    )
    (5): ShuffleNetUnit(
      (gconv1): Conv2d (64, 64, kernel_size=(1, 1), stride=(1, 1), groups=64, bias=False)
      (bn1): BatchNorm2d(64, eps=1e-05, momentum=0.1, affine=True)
      (relu): ReLU(inplace)
      (shuffle): Shuffle(
      )
      (dwconv): Sequential(
        (0): Conv2d (64, 64, kernel_size=(3, 3), stride=(1, 1), padding=(1, 1), groups=64, bias=False)
        (1): BatchNorm2d(64, eps=1e-05, momentum=0.1, affine=True)
        (2): ReLU(inplace)
        (3): Conv2d (64, 64, kernel_size=(1, 1), stride=(1, 1), bias=False)
        (4): BatchNorm2d(64, eps=1e-05, momentum=0.1, affine=True)
        (5): ReLU(inplace)
      )
      (bn2): BatchNorm2d(64, eps=1e-05, momentum=0.1, affine=True)
      (gconv2): Conv2d (64, 64, kernel_size=(1, 1), stride=(1, 1), groups=64, bias=False)
      (bn3): BatchNorm2d(64, eps=1e-05, momentum=0.1, affine=True)
    )
  )
  (layer3): Sequential(
    (0): ShuffleNetUnit(
      (gconv1): Conv2d (64, 64, kernel_size=(1, 1), stride=(1, 1), groups=64, bias=False)
      (bn1): BatchNorm2d(64, eps=1e-05, momentum=0.1, affine=True)
      (relu): ReLU(inplace)
      (shuffle): Shuffle(
      )
      (dwconv): Sequential(
        (0): Conv2d (64, 64, kernel_size=(3, 3), stride=(2, 2), padding=(1, 1), groups=64, bias=False)
        (1): BatchNorm2d(64, eps=1e-05, momentum=0.1, affine=True)
        (2): ReLU(inplace)
        (3): Conv2d (64, 64, kernel_size=(1, 1), stride=(1, 1), bias=False)
        (4): BatchNorm2d(64, eps=1e-05, momentum=0.1, affine=True)
        (5): ReLU(inplace)
      )
      (bn2): BatchNorm2d(64, eps=1e-05, momentum=0.1, affine=True)
      (gconv2): Conv2d (64, 64, kernel_size=(1, 1), stride=(1, 1), groups=64, bias=False)
      (bn3): BatchNorm2d(64, eps=1e-05, momentum=0.1, affine=True)
      (avg1): AvgPool2d(kernel_size=3, stride=2, padding=1, ceil_mode=False, count_include_pad=True)
    )
    (1): ShuffleNetUnit(
      (gconv1): Conv2d (128, 128, kernel_size=(1, 1), stride=(1, 1), groups=128, bias=False)
      (bn1): BatchNorm2d(128, eps=1e-05, momentum=0.1, affine=True)
      (relu): ReLU(inplace)
      (shuffle): Shuffle(
      )
      (dwconv): Sequential(
        (0): Conv2d (128, 128, kernel_size=(3, 3), stride=(1, 1), padding=(1, 1), groups=128, bias=False)
        (1): BatchNorm2d(128, eps=1e-05, momentum=0.1, affine=True)
        (2): ReLU(inplace)
        (3): Conv2d (128, 128, kernel_size=(1, 1), stride=(1, 1), bias=False)
        (4): BatchNorm2d(128, eps=1e-05, momentum=0.1, affine=True)
        (5): ReLU(inplace)
      )
      (bn2): BatchNorm2d(128, eps=1e-05, momentum=0.1, affine=True)
      (gconv2): Conv2d (128, 128, kernel_size=(1, 1), stride=(1, 1), groups=128, bias=False)
      (bn3): BatchNorm2d(128, eps=1e-05, momentum=0.1, affine=True)
    )
    (2): ShuffleNetUnit(
      (gconv1): Conv2d (128, 128, kernel_size=(1, 1), stride=(1, 1), groups=128, bias=False)
      (bn1): BatchNorm2d(128, eps=1e-05, momentum=0.1, affine=True)
      (relu): ReLU(inplace)
      (shuffle): Shuffle(
      )
      (dwconv): Sequential(
        (0): Conv2d (128, 128, kernel_size=(3, 3), stride=(1, 1), padding=(1, 1), groups=128, bias=False)
        (1): BatchNorm2d(128, eps=1e-05, momentum=0.1, affine=True)
        (2): ReLU(inplace)
        (3): Conv2d (128, 128, kernel_size=(1, 1), stride=(1, 1), bias=False)
        (4): BatchNorm2d(128, eps=1e-05, momentum=0.1, affine=True)
        (5): ReLU(inplace)
      )
      (bn2): BatchNorm2d(128, eps=1e-05, momentum=0.1, affine=True)
      (gconv2): Conv2d (128, 128, kernel_size=(1, 1), stride=(1, 1), groups=128, bias=False)
      (bn3): BatchNorm2d(128, eps=1e-05, momentum=0.1, affine=True)
    )
    (3): ShuffleNetUnit(
      (gconv1): Conv2d (128, 128, kernel_size=(1, 1), stride=(1, 1), groups=128, bias=False)
      (bn1): BatchNorm2d(128, eps=1e-05, momentum=0.1, affine=True)
      (relu): ReLU(inplace)
      (shuffle): Shuffle(
      )
      (dwconv): Sequential(
        (0): Conv2d (128, 128, kernel_size=(3, 3), stride=(1, 1), padding=(1, 1), groups=128, bias=False)
        (1): BatchNorm2d(128, eps=1e-05, momentum=0.1, affine=True)
        (2): ReLU(inplace)
        (3): Conv2d (128, 128, kernel_size=(1, 1), stride=(1, 1), bias=False)
        (4): BatchNorm2d(128, eps=1e-05, momentum=0.1, affine=True)
        (5): ReLU(inplace)
      )
      (bn2): BatchNorm2d(128, eps=1e-05, momentum=0.1, affine=True)
      (gconv2): Conv2d (128, 128, kernel_size=(1, 1), stride=(1, 1), groups=128, bias=False)
      (bn3): BatchNorm2d(128, eps=1e-05, momentum=0.1, affine=True)
    )
    (4): ShuffleNetUnit(
      (gconv1): Conv2d (128, 128, kernel_size=(1, 1), stride=(1, 1), groups=128, bias=False)
      (bn1): BatchNorm2d(128, eps=1e-05, momentum=0.1, affine=True)
      (relu): ReLU(inplace)
      (shuffle): Shuffle(
      )
      (dwconv): Sequential(
        (0): Conv2d (128, 128, kernel_size=(3, 3), stride=(1, 1), padding=(1, 1), groups=128, bias=False)
        (1): BatchNorm2d(128, eps=1e-05, momentum=0.1, affine=True)
        (2): ReLU(inplace)
        (3): Conv2d (128, 128, kernel_size=(1, 1), stride=(1, 1), bias=False)
        (4): BatchNorm2d(128, eps=1e-05, momentum=0.1, affine=True)
        (5): ReLU(inplace)
      )
      (bn2): BatchNorm2d(128, eps=1e-05, momentum=0.1, affine=True)
      (gconv2): Conv2d (128, 128, kernel_size=(1, 1), stride=(1, 1), groups=128, bias=False)
      (bn3): BatchNorm2d(128, eps=1e-05, momentum=0.1, affine=True)
    )
    (5): ShuffleNetUnit(
      (gconv1): Conv2d (128, 128, kernel_size=(1, 1), stride=(1, 1), groups=128, bias=False)
      (bn1): BatchNorm2d(128, eps=1e-05, momentum=0.1, affine=True)
      (relu): ReLU(inplace)
      (shuffle): Shuffle(
      )
      (dwconv): Sequential(
        (0): Conv2d (128, 128, kernel_size=(3, 3), stride=(1, 1), padding=(1, 1), groups=128, bias=False)
        (1): BatchNorm2d(128, eps=1e-05, momentum=0.1, affine=True)
        (2): ReLU(inplace)
        (3): Conv2d (128, 128, kernel_size=(1, 1), stride=(1, 1), bias=False)
        (4): BatchNorm2d(128, eps=1e-05, momentum=0.1, affine=True)
        (5): ReLU(inplace)
      )
      (bn2): BatchNorm2d(128, eps=1e-05, momentum=0.1, affine=True)
      (gconv2): Conv2d (128, 128, kernel_size=(1, 1), stride=(1, 1), groups=128, bias=False)
      (bn3): BatchNorm2d(128, eps=1e-05, momentum=0.1, affine=True)
    )
  )
  (avgpool): AdaptiveAvgPool2d(output_size=1)
  (fc): Linear(in_features=128, out_features=10)
)
2018-02-23 18:30:20 INFO: train | epoch 125 | loss: 0.0208 | accuracy: 0.9942 | lr: 0.000001 | using time: 175.364
2018-02-23 18:30:20 INFO: last average accuracy is 0.9938
2018-02-23 18:30:24 INFO: test | loss: 0.7473 | accuracy: 0.8645 | lr: 0.000001 | using time: 3.437
2018-02-23 18:30:28 INFO: train | epoch 97 | loss: 0.0161 | accuracy: 0.9965 | lr: 0.001000 | using time: 72.541
…
2018-02-23 18:41:17 INFO: train | epoch 106 | loss: 0.0153 | accuracy: 0.9969 | lr: 0.000100 | using time: 69.274
2018-02-23 18:41:17 INFO: last average accuracy is 0.9967
2018-02-23 18:41:18 INFO: Load CIFAR10 train data OK. data size is (50000, 32, 32, 3)
2018-02-23 18:41:18 INFO: Load CIFAR10 test data OK. data size is (10000, 32, 32, 3)
2018-02-23 18:41:18 INFO: model name:densenet1
2018-02-23 18:41:18 INFO: model architecture:
DenseNet(
  (features): Sequential(
    (conv0): Conv2d (3, 16, kernel_size=(3, 3), stride=(1, 1), padding=(1, 1), bias=False)
    (denseblock1): _DenseBlock(
      (denselayer1): _DenseLayer(
        (norm.1): BatchNorm2d(16, eps=1e-05, momentum=0.1, affine=True)
        (relu.1): ReLU(inplace)
        (conv.1): Conv2d (16, 32, kernel_size=(1, 1), stride=(1, 1), bias=False)
        (norm.2): BatchNorm2d(32, eps=1e-05, momentum=0.1, affine=True)
        (relu.2): ReLU(inplace)
        (conv.2): Conv2d (32, 8, kernel_size=(3, 3), stride=(1, 1), padding=(1, 1), bias=False)
      )
    )
    (transition1): _Transition(
      (norm): BatchNorm2d(24, eps=1e-05, momentum=0.1, affine=True)
      (relu): ReLU(inplace)
      (conv): Conv2d (24, 12, kernel_size=(1, 1), stride=(1, 1), bias=False)
      (pool): AvgPool2d(kernel_size=2, stride=2, padding=0, ceil_mode=False, count_include_pad=True)
    )
    (denseblock2): _DenseBlock(
      (denselayer1): _DenseLayer(
        (norm.1): BatchNorm2d(12, eps=1e-05, momentum=0.1, affine=True)
        (relu.1): ReLU(inplace)
        (conv.1): Conv2d (12, 32, kernel_size=(1, 1), stride=(1, 1), bias=False)
        (norm.2): BatchNorm2d(32, eps=1e-05, momentum=0.1, affine=True)
        (relu.2): ReLU(inplace)
        (conv.2): Conv2d (32, 8, kernel_size=(3, 3), stride=(1, 1), padding=(1, 1), bias=False)
      )
    )
    (transition2): _Transition(
      (norm): BatchNorm2d(20, eps=1e-05, momentum=0.1, affine=True)
      (relu): ReLU(inplace)
      (conv): Conv2d (20, 10, kernel_size=(1, 1), stride=(1, 1), bias=False)
      (pool): AvgPool2d(kernel_size=2, stride=2, padding=0, ceil_mode=False, count_include_pad=True)
    )
    (denseblock3): _DenseBlock(
      (denselayer1): _DenseLayer(
        (norm.1): BatchNorm2d(10, eps=1e-05, momentum=0.1, affine=True)
        (relu.1): ReLU(inplace)
        (conv.1): Conv2d (10, 32, kernel_size=(1, 1), stride=(1, 1), bias=False)
        (norm.2): BatchNorm2d(32, eps=1e-05, momentum=0.1, affine=True)
        (relu.2): ReLU(inplace)
        (conv.2): Conv2d (32, 8, kernel_size=(3, 3), stride=(1, 1), padding=(1, 1), bias=False)
      )
    )
    (norm_final): BatchNorm2d(18, eps=1e-05, momentum=0.1, affine=True)
  )
  (classifier): Linear(in_features=18, out_features=10)
)
2018-02-23 18:41:21 INFO: test | loss: 0.3751 | accuracy: 0.9058 | lr: 0.000100 | using time: 3.519
2018-02-23 18:41:24 INFO: train | epoch 40 | loss: 0.9973 | accuracy: 0.6466 | lr: 0.000100 | using time: 73.546
2018-02-23 18:41:24 INFO: last average accuracy is 0.6456
2018-02-23 18:41:28 INFO: test | loss: 0.9956 | accuracy: 0.6487 | lr: 0.000100 | using time: 3.285
…
2018-02-23 18:43:21 INFO: last average accuracy is 0.9938
2018-02-23 18:43:24 INFO: test | loss: 0.7192 | accuracy: 0.8650 | lr: 0.000001 | using time: 3.253
2018-02-23 18:43:28 INFO: Load CIFAR10 train data OK. data size is (50000, 32, 32, 3)
2018-02-23 18:43:28 INFO: Load CIFAR10 test data OK. data size is (10000, 32, 32, 3)
2018-02-23 18:43:28 INFO: model name:densenet3
2018-02-23 18:43:28 INFO: model architecture:
DenseNet(
  (features): Sequential(
    (conv0): Conv2d (3, 16, kernel_size=(3, 3), stride=(1, 1), padding=(1, 1), bias=False)
    (denseblock1): _DenseBlock(
      (denselayer1): _DenseLayer(
        (norm.1): BatchNorm2d(16, eps=1e-05, momentum=0.1, affine=True)
        (relu.1): ReLU(inplace)
        (conv.1): Conv2d (16, 32, kernel_size=(1, 1), stride=(1, 1), bias=False)
        (norm.2): BatchNorm2d(32, eps=1e-05, momentum=0.1, affine=True)
        (relu.2): ReLU(inplace)
        (conv.2): Conv2d (32, 8, kernel_size=(3, 3), stride=(1, 1), padding=(1, 1), bias=False)
      )
      (denselayer2): _DenseLayer(
        (norm.1): BatchNorm2d(24, eps=1e-05, momentum=0.1, affine=True)
        (relu.1): ReLU(inplace)
        (conv.1): Conv2d (24, 32, kernel_size=(1, 1), stride=(1, 1), bias=False)
        (norm.2): BatchNorm2d(32, eps=1e-05, momentum=0.1, affine=True)
        (relu.2): ReLU(inplace)
        (conv.2): Conv2d (32, 8, kernel_size=(3, 3), stride=(1, 1), padding=(1, 1), bias=False)
      )
      (denselayer3): _DenseLayer(
        (norm.1): BatchNorm2d(32, eps=1e-05, momentum=0.1, affine=True)
        (relu.1): ReLU(inplace)
        (conv.1): Conv2d (32, 32, kernel_size=(1, 1), stride=(1, 1), bias=False)
        (norm.2): BatchNorm2d(32, eps=1e-05, momentum=0.1, affine=True)
        (relu.2): ReLU(inplace)
        (conv.2): Conv2d (32, 8, kernel_size=(3, 3), stride=(1, 1), padding=(1, 1), bias=False)
      )
    )
    (transition1): _Transition(
      (norm): BatchNorm2d(40, eps=1e-05, momentum=0.1, affine=True)
      (relu): ReLU(inplace)
      (conv): Conv2d (40, 20, kernel_size=(1, 1), stride=(1, 1), bias=False)
      (pool): AvgPool2d(kernel_size=2, stride=2, padding=0, ceil_mode=False, count_include_pad=True)
    )
    (denseblock2): _DenseBlock(
      (denselayer1): _DenseLayer(
        (norm.1): BatchNorm2d(20, eps=1e-05, momentum=0.1, affine=True)
        (relu.1): ReLU(inplace)
        (conv.1): Conv2d (20, 32, kernel_size=(1, 1), stride=(1, 1), bias=False)
        (norm.2): BatchNorm2d(32, eps=1e-05, momentum=0.1, affine=True)
        (relu.2): ReLU(inplace)
        (conv.2): Conv2d (32, 8, kernel_size=(3, 3), stride=(1, 1), padding=(1, 1), bias=False)
      )
      (denselayer2): _DenseLayer(
        (norm.1): BatchNorm2d(28, eps=1e-05, momentum=0.1, affine=True)
        (relu.1): ReLU(inplace)
        (conv.1): Conv2d (28, 32, kernel_size=(1, 1), stride=(1, 1), bias=False)
        (norm.2): BatchNorm2d(32, eps=1e-05, momentum=0.1, affine=True)
        (relu.2): ReLU(inplace)
        (conv.2): Conv2d (32, 8, kernel_size=(3, 3), stride=(1, 1), padding=(1, 1), bias=False)
      )
      (denselayer3): _DenseLayer(
        (norm.1): BatchNorm2d(36, eps=1e-05, momentum=0.1, affine=True)
        (relu.1): ReLU(inplace)
        (conv.1): Conv2d (36, 32, kernel_size=(1, 1), stride=(1, 1), bias=False)
        (norm.2): BatchNorm2d(32, eps=1e-05, momentum=0.1, affine=True)
        (relu.2): ReLU(inplace)
        (conv.2): Conv2d (32, 8, kernel_size=(3, 3), stride=(1, 1), padding=(1, 1), bias=False)
      )
    )
    (transition2): _Transition(
      (norm): BatchNorm2d(44, eps=1e-05, momentum=0.1, affine=True)
      (relu): ReLU(inplace)
      (conv): Conv2d (44, 22, kernel_size=(1, 1), stride=(1, 1), bias=False)
      (pool): AvgPool2d(kernel_size=2, stride=2, padding=0, ceil_mode=False, count_include_pad=True)
    )
    (denseblock3): _DenseBlock(
      (denselayer1): _DenseLayer(
        (norm.1): BatchNorm2d(22, eps=1e-05, momentum=0.1, affine=True)
        (relu.1): ReLU(inplace)
        (conv.1): Conv2d (22, 32, kernel_size=(1, 1), stride=(1, 1), bias=False)
        (norm.2): BatchNorm2d(32, eps=1e-05, momentum=0.1, affine=True)
        (relu.2): ReLU(inplace)
        (conv.2): Conv2d (32, 8, kernel_size=(3, 3), stride=(1, 1), padding=(1, 1), bias=False)
      )
      (denselayer2): _DenseLayer(
        (norm.1): BatchNorm2d(30, eps=1e-05, momentum=0.1, affine=True)
        (relu.1): ReLU(inplace)
        (conv.1): Conv2d (30, 32, kernel_size=(1, 1), stride=(1, 1), bias=False)
        (norm.2): BatchNorm2d(32, eps=1e-05, momentum=0.1, affine=True)
        (relu.2): ReLU(inplace)
        (conv.2): Conv2d (32, 8, kernel_size=(3, 3), stride=(1, 1), padding=(1, 1), bias=False)
      )
      (denselayer3): _DenseLayer(
        (norm.1): BatchNorm2d(38, eps=1e-05, momentum=0.1, affine=True)
        (relu.1): ReLU(inplace)
        (conv.1): Conv2d (38, 32, kernel_size=(1, 1), stride=(1, 1), bias=False)
        (norm.2): BatchNorm2d(32, eps=1e-05, momentum=0.1, affine=True)
        (relu.2): ReLU(inplace)
        (conv.2): Conv2d (32, 8, kernel_size=(3, 3), stride=(1, 1), padding=(1, 1), bias=False)
      )
    )
    (norm_final): BatchNorm2d(46, eps=1e-05, momentum=0.1, affine=True)
  )
  (classifier): Linear(in_features=46, out_features=10)
)
2018-02-23 18:43:29 INFO: train | epoch 17 | loss: 0.6337 | accuracy: 0.7746 | lr: 0.010000 | using time: 90.541
2018-02-23 18:43:29 INFO: last average accuracy is 0.7430
2018-02-23 18:43:33 INFO: test | loss: 0.6846 | accuracy: 0.7612 | lr: 0.010000 | using time: 4.031
2018-02-23 18:43:41 INFO: train | epoch 108 | loss: 0.0158 | accuracy: 0.9963 | lr: 0.000100 | using time: 67.847
…
2018-02-23 19:14:54 INFO: test | loss: 0.3716 | accuracy: 0.9044 | lr: 0.000001 | using time: 3.497
2018-02-23 19:14:57 INFO: test | loss: 0.9978 | accuracy: 0.6473 | lr: 0.000001 | using time: 2.938
2018-02-23 19:14:59 INFO: Load CIFAR10 train data OK. data size is (50000, 32, 32, 3)
2018-02-23 19:14:59 INFO: Load CIFAR10 test data OK. data size is (10000, 32, 32, 3)
2018-02-23 19:14:59 INFO: model name:densenet5
2018-02-23 19:14:59 INFO: model architecture:
DenseNet(
  (features): Sequential(
    (conv0): Conv2d (3, 16, kernel_size=(3, 3), stride=(1, 1), padding=(1, 1), bias=False)
    (denseblock1): _DenseBlock(
      (denselayer1): _DenseLayer(
        (norm.1): BatchNorm2d(16, eps=1e-05, momentum=0.1, affine=True)
        (relu.1): ReLU(inplace)
        (conv.1): Conv2d (16, 32, kernel_size=(1, 1), stride=(1, 1), bias=False)
        (norm.2): BatchNorm2d(32, eps=1e-05, momentum=0.1, affine=True)
        (relu.2): ReLU(inplace)
        (conv.2): Conv2d (32, 8, kernel_size=(3, 3), stride=(1, 1), padding=(1, 1), bias=False)
      )
      (denselayer2): _DenseLayer(
        (norm.1): BatchNorm2d(24, eps=1e-05, momentum=0.1, affine=True)
        (relu.1): ReLU(inplace)
        (conv.1): Conv2d (24, 32, kernel_size=(1, 1), stride=(1, 1), bias=False)
        (norm.2): BatchNorm2d(32, eps=1e-05, momentum=0.1, affine=True)
        (relu.2): ReLU(inplace)
        (conv.2): Conv2d (32, 8, kernel_size=(3, 3), stride=(1, 1), padding=(1, 1), bias=False)
      )
      (denselayer3): _DenseLayer(
        (norm.1): BatchNorm2d(32, eps=1e-05, momentum=0.1, affine=True)
        (relu.1): ReLU(inplace)
        (conv.1): Conv2d (32, 32, kernel_size=(1, 1), stride=(1, 1), bias=False)
        (norm.2): BatchNorm2d(32, eps=1e-05, momentum=0.1, affine=True)
        (relu.2): ReLU(inplace)
        (conv.2): Conv2d (32, 8, kernel_size=(3, 3), stride=(1, 1), padding=(1, 1), bias=False)
      )
      (denselayer4): _DenseLayer(
        (norm.1): BatchNorm2d(40, eps=1e-05, momentum=0.1, affine=True)
        (relu.1): ReLU(inplace)
        (conv.1): Conv2d (40, 32, kernel_size=(1, 1), stride=(1, 1), bias=False)
        (norm.2): BatchNorm2d(32, eps=1e-05, momentum=0.1, affine=True)
        (relu.2): ReLU(inplace)
        (conv.2): Conv2d (32, 8, kernel_size=(3, 3), stride=(1, 1), padding=(1, 1), bias=False)
      )
      (denselayer5): _DenseLayer(
        (norm.1): BatchNorm2d(48, eps=1e-05, momentum=0.1, affine=True)
        (relu.1): ReLU(inplace)
        (conv.1): Conv2d (48, 32, kernel_size=(1, 1), stride=(1, 1), bias=False)
        (norm.2): BatchNorm2d(32, eps=1e-05, momentum=0.1, affine=True)
        (relu.2): ReLU(inplace)
        (conv.2): Conv2d (32, 8, kernel_size=(3, 3), stride=(1, 1), padding=(1, 1), bias=False)
      )
    )
    (transition1): _Transition(
      (norm): BatchNorm2d(56, eps=1e-05, momentum=0.1, affine=True)
      (relu): ReLU(inplace)
      (conv): Conv2d (56, 28, kernel_size=(1, 1), stride=(1, 1), bias=False)
      (pool): AvgPool2d(kernel_size=2, stride=2, padding=0, ceil_mode=False, count_include_pad=True)
    )
    (denseblock2): _DenseBlock(
      (denselayer1): _DenseLayer(
        (norm.1): BatchNorm2d(28, eps=1e-05, momentum=0.1, affine=True)
        (relu.1): ReLU(inplace)
        (conv.1): Conv2d (28, 32, kernel_size=(1, 1), stride=(1, 1), bias=False)
        (norm.2): BatchNorm2d(32, eps=1e-05, momentum=0.1, affine=True)
        (relu.2): ReLU(inplace)
        (conv.2): Conv2d (32, 8, kernel_size=(3, 3), stride=(1, 1), padding=(1, 1), bias=False)
      )
      (denselayer2): _DenseLayer(
        (norm.1): BatchNorm2d(36, eps=1e-05, momentum=0.1, affine=True)
        (relu.1): ReLU(inplace)
        (conv.1): Conv2d (36, 32, kernel_size=(1, 1), stride=(1, 1), bias=False)
        (norm.2): BatchNorm2d(32, eps=1e-05, momentum=0.1, affine=True)
        (relu.2): ReLU(inplace)
        (conv.2): Conv2d (32, 8, kernel_size=(3, 3), stride=(1, 1), padding=(1, 1), bias=False)
      )
      (denselayer3): _DenseLayer(
        (norm.1): BatchNorm2d(44, eps=1e-05, momentum=0.1, affine=True)
        (relu.1): ReLU(inplace)
        (conv.1): Conv2d (44, 32, kernel_size=(1, 1), stride=(1, 1), bias=False)
        (norm.2): BatchNorm2d(32, eps=1e-05, momentum=0.1, affine=True)
        (relu.2): ReLU(inplace)
        (conv.2): Conv2d (32, 8, kernel_size=(3, 3), stride=(1, 1), padding=(1, 1), bias=False)
      )
      (denselayer4): _DenseLayer(
        (norm.1): BatchNorm2d(52, eps=1e-05, momentum=0.1, affine=True)
        (relu.1): ReLU(inplace)
        (conv.1): Conv2d (52, 32, kernel_size=(1, 1), stride=(1, 1), bias=False)
        (norm.2): BatchNorm2d(32, eps=1e-05, momentum=0.1, affine=True)
        (relu.2): ReLU(inplace)
        (conv.2): Conv2d (32, 8, kernel_size=(3, 3), stride=(1, 1), padding=(1, 1), bias=False)
      )
      (denselayer5): _DenseLayer(
        (norm.1): BatchNorm2d(60, eps=1e-05, momentum=0.1, affine=True)
        (relu.1): ReLU(inplace)
        (conv.1): Conv2d (60, 32, kernel_size=(1, 1), stride=(1, 1), bias=False)
        (norm.2): BatchNorm2d(32, eps=1e-05, momentum=0.1, affine=True)
        (relu.2): ReLU(inplace)
        (conv.2): Conv2d (32, 8, kernel_size=(3, 3), stride=(1, 1), padding=(1, 1), bias=False)
      )
    )
    (transition2): _Transition(
      (norm): BatchNorm2d(68, eps=1e-05, momentum=0.1, affine=True)
      (relu): ReLU(inplace)
      (conv): Conv2d (68, 34, kernel_size=(1, 1), stride=(1, 1), bias=False)
      (pool): AvgPool2d(kernel_size=2, stride=2, padding=0, ceil_mode=False, count_include_pad=True)
    )
    (denseblock3): _DenseBlock(
      (denselayer1): _DenseLayer(
        (norm.1): BatchNorm2d(34, eps=1e-05, momentum=0.1, affine=True)
        (relu.1): ReLU(inplace)
        (conv.1): Conv2d (34, 32, kernel_size=(1, 1), stride=(1, 1), bias=False)
        (norm.2): BatchNorm2d(32, eps=1e-05, momentum=0.1, affine=True)
        (relu.2): ReLU(inplace)
        (conv.2): Conv2d (32, 8, kernel_size=(3, 3), stride=(1, 1), padding=(1, 1), bias=False)
      )
      (denselayer2): _DenseLayer(
        (norm.1): BatchNorm2d(42, eps=1e-05, momentum=0.1, affine=True)
        (relu.1): ReLU(inplace)
        (conv.1): Conv2d (42, 32, kernel_size=(1, 1), stride=(1, 1), bias=False)
        (norm.2): BatchNorm2d(32, eps=1e-05, momentum=0.1, affine=True)
        (relu.2): ReLU(inplace)
        (conv.2): Conv2d (32, 8, kernel_size=(3, 3), stride=(1, 1), padding=(1, 1), bias=False)
      )
      (denselayer3): _DenseLayer(
        (norm.1): BatchNorm2d(50, eps=1e-05, momentum=0.1, affine=True)
        (relu.1): ReLU(inplace)
        (conv.1): Conv2d (50, 32, kernel_size=(1, 1), stride=(1, 1), bias=False)
        (norm.2): BatchNorm2d(32, eps=1e-05, momentum=0.1, affine=True)
        (relu.2): ReLU(inplace)
        (conv.2): Conv2d (32, 8, kernel_size=(3, 3), stride=(1, 1), padding=(1, 1), bias=False)
      )
      (denselayer4): _DenseLayer(
        (norm.1): BatchNorm2d(58, eps=1e-05, momentum=0.1, affine=True)
        (relu.1): ReLU(inplace)
        (conv.1): Conv2d (58, 32, kernel_size=(1, 1), stride=(1, 1), bias=False)
        (norm.2): BatchNorm2d(32, eps=1e-05, momentum=0.1, affine=True)
        (relu.2): ReLU(inplace)
        (conv.2): Conv2d (32, 8, kernel_size=(3, 3), stride=(1, 1), padding=(1, 1), bias=False)
      )
      (denselayer5): _DenseLayer(
        (norm.1): BatchNorm2d(66, eps=1e-05, momentum=0.1, affine=True)
        (relu.1): ReLU(inplace)
        (conv.1): Conv2d (66, 32, kernel_size=(1, 1), stride=(1, 1), bias=False)
        (norm.2): BatchNorm2d(32, eps=1e-05, momentum=0.1, affine=True)
        (relu.2): ReLU(inplace)
        (conv.2): Conv2d (32, 8, kernel_size=(3, 3), stride=(1, 1), padding=(1, 1), bias=False)
      )
    )
    (norm_final): BatchNorm2d(74, eps=1e-05, momentum=0.1, affine=True)
  )
  (classifier): Linear(in_features=74, out_features=10)
)
2018-02-23 19:15:01 INFO: train | epoch 13 | loss: 0.7435 | accuracy: 0.7378 | lr: 0.100000 | using time: 147.372
2018-02-23 19:15:01 INFO: last average accuracy is 0.7312
2018-02-23 19:15:06 INFO: test | loss: 1.1473 | accuracy: 0.6173 | lr: 0.100000 | using time: 5.072
2018-02-23 19:15:19 INFO: train | epoch 24 | loss: 0.5351 | accuracy: 0.8114 | lr: 0.010000 | using time: 111.689
…
2018-02-23 19:19:46 INFO: last average accuracy is 0.7921
2018-02-23 19:19:49 INFO: test | loss: 0.6792 | accuracy: 0.7650 | lr: 0.010000 | using time: 3.684
2018-02-23 19:19:50 INFO: Load CIFAR10 train data OK. data size is (50000, 32, 32, 3)
2018-02-23 19:19:50 INFO: Load CIFAR10 test data OK. data size is (10000, 32, 32, 3)
2018-02-23 19:19:50 INFO: model name:densenet7
2018-02-23 19:19:50 INFO: model architecture:
DenseNet(
  (features): Sequential(
    (conv0): Conv2d (3, 16, kernel_size=(3, 3), stride=(1, 1), padding=(1, 1), bias=False)
    (denseblock1): _DenseBlock(
      (denselayer1): _DenseLayer(
        (norm.1): BatchNorm2d(16, eps=1e-05, momentum=0.1, affine=True)
        (relu.1): ReLU(inplace)
        (conv.1): Conv2d (16, 32, kernel_size=(1, 1), stride=(1, 1), bias=False)
        (norm.2): BatchNorm2d(32, eps=1e-05, momentum=0.1, affine=True)
        (relu.2): ReLU(inplace)
        (conv.2): Conv2d (32, 8, kernel_size=(3, 3), stride=(1, 1), padding=(1, 1), bias=False)
      )
      (denselayer2): _DenseLayer(
        (norm.1): BatchNorm2d(24, eps=1e-05, momentum=0.1, affine=True)
        (relu.1): ReLU(inplace)
        (conv.1): Conv2d (24, 32, kernel_size=(1, 1), stride=(1, 1), bias=False)
        (norm.2): BatchNorm2d(32, eps=1e-05, momentum=0.1, affine=True)
        (relu.2): ReLU(inplace)
        (conv.2): Conv2d (32, 8, kernel_size=(3, 3), stride=(1, 1), padding=(1, 1), bias=False)
      )
      (denselayer3): _DenseLayer(
        (norm.1): BatchNorm2d(32, eps=1e-05, momentum=0.1, affine=True)
        (relu.1): ReLU(inplace)
        (conv.1): Conv2d (32, 32, kernel_size=(1, 1), stride=(1, 1), bias=False)
        (norm.2): BatchNorm2d(32, eps=1e-05, momentum=0.1, affine=True)
        (relu.2): ReLU(inplace)
        (conv.2): Conv2d (32, 8, kernel_size=(3, 3), stride=(1, 1), padding=(1, 1), bias=False)
      )
      (denselayer4): _DenseLayer(
        (norm.1): BatchNorm2d(40, eps=1e-05, momentum=0.1, affine=True)
        (relu.1): ReLU(inplace)
        (conv.1): Conv2d (40, 32, kernel_size=(1, 1), stride=(1, 1), bias=False)
        (norm.2): BatchNorm2d(32, eps=1e-05, momentum=0.1, affine=True)
        (relu.2): ReLU(inplace)
        (conv.2): Conv2d (32, 8, kernel_size=(3, 3), stride=(1, 1), padding=(1, 1), bias=False)
      )
      (denselayer5): _DenseLayer(
        (norm.1): BatchNorm2d(48, eps=1e-05, momentum=0.1, affine=True)
        (relu.1): ReLU(inplace)
        (conv.1): Conv2d (48, 32, kernel_size=(1, 1), stride=(1, 1), bias=False)
        (norm.2): BatchNorm2d(32, eps=1e-05, momentum=0.1, affine=True)
        (relu.2): ReLU(inplace)
        (conv.2): Conv2d (32, 8, kernel_size=(3, 3), stride=(1, 1), padding=(1, 1), bias=False)
      )
      (denselayer6): _DenseLayer(
        (norm.1): BatchNorm2d(56, eps=1e-05, momentum=0.1, affine=True)
        (relu.1): ReLU(inplace)
        (conv.1): Conv2d (56, 32, kernel_size=(1, 1), stride=(1, 1), bias=False)
        (norm.2): BatchNorm2d(32, eps=1e-05, momentum=0.1, affine=True)
        (relu.2): ReLU(inplace)
        (conv.2): Conv2d (32, 8, kernel_size=(3, 3), stride=(1, 1), padding=(1, 1), bias=False)
      )
      (denselayer7): _DenseLayer(
        (norm.1): BatchNorm2d(64, eps=1e-05, momentum=0.1, affine=True)
        (relu.1): ReLU(inplace)
        (conv.1): Conv2d (64, 32, kernel_size=(1, 1), stride=(1, 1), bias=False)
        (norm.2): BatchNorm2d(32, eps=1e-05, momentum=0.1, affine=True)
        (relu.2): ReLU(inplace)
        (conv.2): Conv2d (32, 8, kernel_size=(3, 3), stride=(1, 1), padding=(1, 1), bias=False)
      )
    )
    (transition1): _Transition(
      (norm): BatchNorm2d(72, eps=1e-05, momentum=0.1, affine=True)
      (relu): ReLU(inplace)
      (conv): Conv2d (72, 36, kernel_size=(1, 1), stride=(1, 1), bias=False)
      (pool): AvgPool2d(kernel_size=2, stride=2, padding=0, ceil_mode=False, count_include_pad=True)
    )
    (denseblock2): _DenseBlock(
      (denselayer1): _DenseLayer(
        (norm.1): BatchNorm2d(36, eps=1e-05, momentum=0.1, affine=True)
        (relu.1): ReLU(inplace)
        (conv.1): Conv2d (36, 32, kernel_size=(1, 1), stride=(1, 1), bias=False)
        (norm.2): BatchNorm2d(32, eps=1e-05, momentum=0.1, affine=True)
        (relu.2): ReLU(inplace)
        (conv.2): Conv2d (32, 8, kernel_size=(3, 3), stride=(1, 1), padding=(1, 1), bias=False)
      )
      (denselayer2): _DenseLayer(
        (norm.1): BatchNorm2d(44, eps=1e-05, momentum=0.1, affine=True)
        (relu.1): ReLU(inplace)
        (conv.1): Conv2d (44, 32, kernel_size=(1, 1), stride=(1, 1), bias=False)
        (norm.2): BatchNorm2d(32, eps=1e-05, momentum=0.1, affine=True)
        (relu.2): ReLU(inplace)
        (conv.2): Conv2d (32, 8, kernel_size=(3, 3), stride=(1, 1), padding=(1, 1), bias=False)
      )
      (denselayer3): _DenseLayer(
        (norm.1): BatchNorm2d(52, eps=1e-05, momentum=0.1, affine=True)
        (relu.1): ReLU(inplace)
        (conv.1): Conv2d (52, 32, kernel_size=(1, 1), stride=(1, 1), bias=False)
        (norm.2): BatchNorm2d(32, eps=1e-05, momentum=0.1, affine=True)
        (relu.2): ReLU(inplace)
        (conv.2): Conv2d (32, 8, kernel_size=(3, 3), stride=(1, 1), padding=(1, 1), bias=False)
      )
      (denselayer4): _DenseLayer(
        (norm.1): BatchNorm2d(60, eps=1e-05, momentum=0.1, affine=True)
        (relu.1): ReLU(inplace)
        (conv.1): Conv2d (60, 32, kernel_size=(1, 1), stride=(1, 1), bias=False)
        (norm.2): BatchNorm2d(32, eps=1e-05, momentum=0.1, affine=True)
        (relu.2): ReLU(inplace)
        (conv.2): Conv2d (32, 8, kernel_size=(3, 3), stride=(1, 1), padding=(1, 1), bias=False)
      )
      (denselayer5): _DenseLayer(
        (norm.1): BatchNorm2d(68, eps=1e-05, momentum=0.1, affine=True)
        (relu.1): ReLU(inplace)
        (conv.1): Conv2d (68, 32, kernel_size=(1, 1), stride=(1, 1), bias=False)
        (norm.2): BatchNorm2d(32, eps=1e-05, momentum=0.1, affine=True)
        (relu.2): ReLU(inplace)
        (conv.2): Conv2d (32, 8, kernel_size=(3, 3), stride=(1, 1), padding=(1, 1), bias=False)
      )
      (denselayer6): _DenseLayer(
        (norm.1): BatchNorm2d(76, eps=1e-05, momentum=0.1, affine=True)
        (relu.1): ReLU(inplace)
        (conv.1): Conv2d (76, 32, kernel_size=(1, 1), stride=(1, 1), bias=False)
        (norm.2): BatchNorm2d(32, eps=1e-05, momentum=0.1, affine=True)
        (relu.2): ReLU(inplace)
        (conv.2): Conv2d (32, 8, kernel_size=(3, 3), stride=(1, 1), padding=(1, 1), bias=False)
      )
      (denselayer7): _DenseLayer(
        (norm.1): BatchNorm2d(84, eps=1e-05, momentum=0.1, affine=True)
        (relu.1): ReLU(inplace)
        (conv.1): Conv2d (84, 32, kernel_size=(1, 1), stride=(1, 1), bias=False)
        (norm.2): BatchNorm2d(32, eps=1e-05, momentum=0.1, affine=True)
        (relu.2): ReLU(inplace)
        (conv.2): Conv2d (32, 8, kernel_size=(3, 3), stride=(1, 1), padding=(1, 1), bias=False)
      )
    )
    (transition2): _Transition(
      (norm): BatchNorm2d(92, eps=1e-05, momentum=0.1, affine=True)
      (relu): ReLU(inplace)
      (conv): Conv2d (92, 46, kernel_size=(1, 1), stride=(1, 1), bias=False)
      (pool): AvgPool2d(kernel_size=2, stride=2, padding=0, ceil_mode=False, count_include_pad=True)
    )
    (denseblock3): _DenseBlock(
      (denselayer1): _DenseLayer(
        (norm.1): BatchNorm2d(46, eps=1e-05, momentum=0.1, affine=True)
        (relu.1): ReLU(inplace)
        (conv.1): Conv2d (46, 32, kernel_size=(1, 1), stride=(1, 1), bias=False)
        (norm.2): BatchNorm2d(32, eps=1e-05, momentum=0.1, affine=True)
        (relu.2): ReLU(inplace)
        (conv.2): Conv2d (32, 8, kernel_size=(3, 3), stride=(1, 1), padding=(1, 1), bias=False)
      )
      (denselayer2): _DenseLayer(
        (norm.1): BatchNorm2d(54, eps=1e-05, momentum=0.1, affine=True)
        (relu.1): ReLU(inplace)
        (conv.1): Conv2d (54, 32, kernel_size=(1, 1), stride=(1, 1), bias=False)
        (norm.2): BatchNorm2d(32, eps=1e-05, momentum=0.1, affine=True)
        (relu.2): ReLU(inplace)
        (conv.2): Conv2d (32, 8, kernel_size=(3, 3), stride=(1, 1), padding=(1, 1), bias=False)
      )
      (denselayer3): _DenseLayer(
        (norm.1): BatchNorm2d(62, eps=1e-05, momentum=0.1, affine=True)
        (relu.1): ReLU(inplace)
        (conv.1): Conv2d (62, 32, kernel_size=(1, 1), stride=(1, 1), bias=False)
        (norm.2): BatchNorm2d(32, eps=1e-05, momentum=0.1, affine=True)
        (relu.2): ReLU(inplace)
        (conv.2): Conv2d (32, 8, kernel_size=(3, 3), stride=(1, 1), padding=(1, 1), bias=False)
      )
      (denselayer4): _DenseLayer(
        (norm.1): BatchNorm2d(70, eps=1e-05, momentum=0.1, affine=True)
        (relu.1): ReLU(inplace)
        (conv.1): Conv2d (70, 32, kernel_size=(1, 1), stride=(1, 1), bias=False)
        (norm.2): BatchNorm2d(32, eps=1e-05, momentum=0.1, affine=True)
        (relu.2): ReLU(inplace)
        (conv.2): Conv2d (32, 8, kernel_size=(3, 3), stride=(1, 1), padding=(1, 1), bias=False)
      )
      (denselayer5): _DenseLayer(
        (norm.1): BatchNorm2d(78, eps=1e-05, momentum=0.1, affine=True)
        (relu.1): ReLU(inplace)
        (conv.1): Conv2d (78, 32, kernel_size=(1, 1), stride=(1, 1), bias=False)
        (norm.2): BatchNorm2d(32, eps=1e-05, momentum=0.1, affine=True)
        (relu.2): ReLU(inplace)
        (conv.2): Conv2d (32, 8, kernel_size=(3, 3), stride=(1, 1), padding=(1, 1), bias=False)
      )
      (denselayer6): _DenseLayer(
        (norm.1): BatchNorm2d(86, eps=1e-05, momentum=0.1, affine=True)
        (relu.1): ReLU(inplace)
        (conv.1): Conv2d (86, 32, kernel_size=(1, 1), stride=(1, 1), bias=False)
        (norm.2): BatchNorm2d(32, eps=1e-05, momentum=0.1, affine=True)
        (relu.2): ReLU(inplace)
        (conv.2): Conv2d (32, 8, kernel_size=(3, 3), stride=(1, 1), padding=(1, 1), bias=False)
      )
      (denselayer7): _DenseLayer(
        (norm.1): BatchNorm2d(94, eps=1e-05, momentum=0.1, affine=True)
        (relu.1): ReLU(inplace)
        (conv.1): Conv2d (94, 32, kernel_size=(1, 1), stride=(1, 1), bias=False)
        (norm.2): BatchNorm2d(32, eps=1e-05, momentum=0.1, affine=True)
        (relu.2): ReLU(inplace)
        (conv.2): Conv2d (32, 8, kernel_size=(3, 3), stride=(1, 1), padding=(1, 1), bias=False)
      )
    )
    (norm_final): BatchNorm2d(102, eps=1e-05, momentum=0.1, affine=True)
  )
  (classifier): Linear(in_features=102, out_features=10)
)
2018-02-23 19:19:58 INFO: train | epoch 84 | loss: 0.0102 | accuracy: 0.9977 | lr: 0.001000 | using time: 74.460
2018-02-23 19:19:58 INFO: last average accuracy is 0.9967
2018-02-23 19:20:02 INFO: test | loss: 0.3453 | accuracy: 0.9204 | lr: 0.001000 | using time: 3.776
2018-02-23 19:20:18 INFO: train | epoch 27 | loss: 0.5213 | accuracy: 0.8168 | lr: 0.010000 | using time: 94.939
…
